Python/best_model.pth (torch, 44002 bytes, 31 tensors)

conv_block1.conv.weight f4 [4, 1, 3, 3]
0.07291291 -0.22263506 -0.15000694 -0.27096403 0.10060638 -0.28952655 0.22941056 0.27689674
-0.22760569 -0.32560322 -0.25876772 0.12868111 0.23091474 0.45912594 0.24248272 0.24470048
0.21902564 0.14270477 -0.2968501 -0.30531245 -0.3013931 -0.02611553 -0.0008273378 0.1607216
0.016285714 -0.27254325 -0.41302425 0.29111055 0.37770766 0.15861483 -0.11552283 0.07700002
-0.12578748 0.030482963 -0.16531962 -0.10514169
00000000: 5d53 953d 72fa 63be 6b9b 19be ccbb 8abe
00000010: b80a ce3d d33c 94be 9aea 6a3e 69c5 8d3e
00000020: 7711 69be 77b5 a6be 347d 84be fbc4 033e
00000030: ea74 6c3e 8e12 eb3e 644d 783e c392 7a3e
00000040: 4248 603e 3321 123e bcfc 97be ea51 9cbe
00000050: 3250 9abe 3cf0 d5bc b3e1 58ba 3494 243e
00000060: 9e69 853c ca8a 8bbe ea77 d3be 710c 953e
00000070: e662 c13e ed6b 223e 3c97 ecbd 30b2 9d3d
00000080: 6fce 00be 68b7 f93c 8c49 29be 8754 d7bd

conv_block1.conv.bias f4 [4]
-0.030414525 0.0675725 0.020149399 -0.015590889
00000000: e227 f9bc 7363 8a3d 5a10 a53c ee70 7fbc

conv_block1.bn.weight f4 [4]
0.98928314 0.9028864 0.95619816 0.97065675
00000000: a941 7d3f 9023 673f 67c9 743f f67c 783f

conv_block1.bn.bias f4 [4]
0.074398994 -0.08992595 -0.07953727 0.036775533
00000000: 805e 983d 192b b8bd 70e4 a2bd f1a1 163d

conv_block1.bn.running_mean f4 [4]
-0.11479752 0.31261346 -0.24716716 0.0485809
00000000: f61a ebbd df0e a03e 6319 7dbe c4fc 463d

conv_block1.bn.running_var f4 [4]
0.11058154 0.12342004 0.1251035 0.075352006
00000000: 9378 e23d a5c3 fc3d 221b 003e 2752 9a3d

conv_block2.conv.weight f4 [16, 4, 3, 3]
0.13098305 0.041326035 0.053859826 -0.03276048 -0.052983336 -0.0071524237 0.084494606 0.05971055
-0.1812557 -0.068968505 0.08315296 0.07583049 -0.025358284 -0.07605426 -0.17789131 -0.12583843
-0.26077455 0.17400824 0.12765932 -0.05448944 0.1586185 0.086440146 -0.08778057 -0.116052166
-0.004587448 0.024118718 -0.004487942 -0.16023025 0.002870224 0.1425918 -0.24809997 0.07819467
0.05666432 0.023412561 0.06456799 -0.1370881 0.21612328 0.08021311 -0.05245692 -0.41680253
0.055706244 0.04329515 0.122738786 0.033915155 0.09028322 0.049259886 0.030231329 0.099695764
-0.01147812 -0.104456775 0.057783224 -0.22419019 0.0016454756 -0.13587084 -0.08023813 0.075031266
-0.026490299 0.1348432 -0.08261871 0.01677546 0.19252203 0.22218534 -0.009404084 0.12240774
0.15966243 -0.30559254 -0.0066691497 -0.2185776 0.0073373625 -0.04966664 0.10465256 0.09033367
-0.086011745 0.05487792 -0.1659135 0.028567811 0.026269507 -0.112300016 0.10429518 -0.026763812
0.09291881 -0.024978697 -0.15562174 0.115150556 0.27032694 0.042915452 -0.12086145 -0.029734386
0.12360244 0.08132313 0.10152294 0.00036568148 0.15661845 0.17675048 0.0020130572 0.24786827
0.004330585 0.26454782 -0.16472432 0.16484992 -0.09467812 0.10257733 -0.053917468 -0.21965908
-0.16924158 -0.0014113833 -0.027850254 0.0510442 -0.108332455 0.0029351884 -0.1084399 -0.04324585
0.20762643 0.09375283 -0.2062354 0.08833863 0.08509597 -0.069142215 0.107926294 -0.073941335
-0.15463366 0.13105807 0.07004248 0.040306244 -0.036371425 -0.08535854 -0.06763808 -0.12614751
-0.024326934 -0.20212908 -0.21931262 -0.11557073 -0.05063936 -0.05651096 -0.04307215 -0.18911576
0.059135742 -0.1068051 -0.07253489 0.009594264 -0.021639926 -0.10227005 0.20819624 0.12689205
-0.36929584 0.12908494 0.08222599 -0.20412868 -0.17608105 -0.13823327 -0.047542993 -0.27366135
0.05168981 -0.04193967 0.013567906 -0.061453305 -0.25732273 -0.066886745 0.02699038 0.1810171
-0.075958766 -0.090403 -0.049425058 -0.23655894 0.045539003 0.08351148 0.028027818 0.09769839
-0.20441718 -0.010442489 0.1487755 0.0625829 -0.09247173 0.08049011 -0.043691013 -0.25029692
0.09997007 0.11101795 0.0672123 -0.035009332 -0.2819399 -0.20804653 0.34932828 0.042303547
0.044458423 -0.09115066 0.037465587 0.061048992 0.010863594 -0.013606561 -0.012361228 -0.028639356
0.15624394 0.07907973 0.0805011 -0.026115196 -0.020587534 -0.20416664 -0.14643614 -0.040655013
0.056337517 -0.015925974 -0.09945049 0.11169625 -0.10733394 0.08095785 -0.025412539 -0.0030572375
-0.24377188 0.14057179 -0.29187983 0.057043515 -0.07499377 -0.26666072 -0.00032760267 -0.10866594
0.0601562 -0.03694968 0.08428665 -0.12412335 -0.12094868 0.09956848 0.28411093 0.08075846
-0.20537312 0.0047839778 -0.035156123 -0.08612239 -0.10341692 -0.08919445 -0.108716026 0.033118047
0.23850474 -0.05730828 -0.22627307 -0.023398492 -0.22088826 -0.029253393 -0.08650291 0.01220862
-0.025541807 -0.18563834 -0.11257995 0.18349195 0.025526432 0.057523526 0.026216848 -0.020619448
0.068616256 0.042623904 0.12945825 0.020080103 0.017579023 -0.18827584 0.04272978 -0.19443811
00000000: 6c20 063e 7d45 293d 1f9c 5c3d da2f 06bd
00000010: 0e05 59bd e15e eabb 820b ad3d 0d93 743d
00000020: 189b 39be 5c3f 8dbd 194c aa3d 044d 9b3d
00000030: 2dbc cfbc 56c2 9bbd 2429 36be cadb 00be
00000040: 3e84 85be 372f 323e 20b9 023e 5230 5fbd
00000050: e36c 223e 8807 b13d 4dc6 b3bd c2ac edbd
00000060: 4e52 96bb 9e94 c53c 960f 93bb 6613 24be
00000070: 5e1a 3c3b 9603 123e eb0d 7ebe 8724 a03d
00000080: d918 683d b3cb bf3c 393c 843d d360 0cbe
00000090: 6c4f 5d3e c546 a43d 11dd 56bd 2467 d5be
000000a0: 3b2c 643d 4156 313d 795e fb3d 9eea 0a3d
000000b0: 69e6 b83d bcc4 493d b1a7 f73c 4b2d cc3d
000000c0: ba0e 3cbc 6fed d5bd 1aae 6c3d 1d92 65be
000000d0: 00ad d73a ba21 0bbe e453 a4bd fea9 993d
000000e0: 2f02 d9bc 5614 0a3e 0034 a9bd b16c 893c
000000f0: 7f24 453e 8e84 633e 9613 1abc e9b0 fa3d
00000100: 8c7e 233e a076 9cbe e288 dabb ced2 5fbe
00000110: 426e f03b 3f6f 4bbd 1554 d63d dc00 b93d
00000120: ed26 b0bd abc7 603d 3be5 29be 0b07 ea3c
00000130: 2633 d73c 8dfd e5bd b698 d53d c83f dbbc
00000140: 384c be3d 20a0 ccbc 4e5b 1fbe 0ed4 eb3d
00000150: 4b68 8a3e 1dc8 2f3d 3586 f7bd 8795 f3bc
00000160: 4723 fd3d be8c a63d 42eb cf3d f0b8 bf39
00000170: 9660 203e 14fe 343e 7fed 033b 2ed1 7d3e
00000180: 94e7 8d3b d072 873e 7ead 28be 6bce 283e
00000190: 9ae6 c1bd 1014 d23d 90d8 5cbd 4fee 60be
000001a0: aa4d 2dbe 2afe b8ba 3726 e4bc b913 513d
000001b0: 68dd ddbd 4a5c 403b bd15 debd 8f22 31bd
000001c0: 069c 543e 7c01 c03d 5f2f 53be e2ea b43d
000001d0: cc46 ae3d 6f9a 8dbd 7608 dd3d 8e6e 97bd
000001e0: 4958 1ebe 1634 063e 6f72 8f3d 2918 253d
000001f0: 34fa 14bd 75d0 aebd d585 8abd d02c 01be
00000200: 4749 c7bc edfa 4ebe 7d93 60be 59b0 ecbd
00000210: 386b 4fbd 0978 67bd 6c6c 30bd 90a7 41be
00000220: 5238 723d a2bc dabd 2c8d 94bd 4331 1d3c
00000230: 3746 b1bc f672 d1bd 6531 553e fdef 013e
00000240: 5814 bdbe d82e 043e 1a66 a83d 1c07 51be
00000250: 974e 34be 068d 0dbe 71bc 42bd 571d 8cbe
00000260: b2b8 533d eec8 2bbd ec4b 5e3c 76b6 7bbd
00000270: cebf 83be ebfb 88bd ee1a dd3c 8c5c 393e
00000280: 4590 9bbd 3525 b9bd ee71 4abd 823c 72be
00000290: 1b87 3a3d 1108 ab3d 989a e53c 1816 c83d
000002a0: bd52 51be f916 2bbc 9b58 183e 772b 803d
000002b0: d261 bdbd 00d8 a43d 59f5 32bd eb26 80be
000002c0: 1cbd cc3d 615d e33d 9aa6 893d f265 0fbd
000002d0: 6d5a 90be 260a 55be 28db b23e 7c46 2d3d
000002e0: 091a 363d 32ad babd 8475 193d 820e 7a3d
000002f0: 37fd 313c 0eee 5ebc bf86 4abc 159d eabc
00000300: 69fe 1f3e 8ef4 a13d c3dd a43d 89ef d5bc
00000310: 30a7 a8bc 0f11 51be 5bf3 15be df85 26bd
00000320: 2bc2 663d 3077 82bc b3ac cbbd 01c1 e43d
00000330: e6d1 dbbd 3bcd a53d f52d d0bc ef5b 48bb
00000340: 569f 79be 0df2 0f3e 4671 95be 76a6 693d
00000350: 5596 99bd c187 88be 16c2 abb9 408c debd
00000360: 5966 763d 8c58 17bd 7b9e ac3d 6234 febd
00000370: f1b3 f7bd 8fea cb3d fd76 913e b164 a53d
00000380: 554d 52be eac2 9c3b deff 0fbd f060 b0bd
00000390: 40cc d3bd 94ab b6bd 82a6 debd caa6 073d
000003a0: 963a 743e 16bc 6abd 21b4 67be 32ae bfbc
000003b0: 8830 62be d0a4 efbc 7028 b1bd aa06 483c
000003c0: 0d3d d1bc fa17 3ebe 5190 e6bd 50e5 3b3e
000003d0: cf1c d13c ca9d 6b3d b7c4 d63c 1eea a8bc
000003e0: ae86 8c3d 6796 2e3d b490 043e 077f a43c
000003f0: e201 903c 62cb 40be 6c05 2f3d c91a 47be

conv_block2.conv.bias f4 [16]
0.038407795 0.016096719 0.0010960244 -0.00019310844 -0.021209192 -0.0708285 0.0014062801 -0.001798469
0.026021553 0.022279423 -0.033906776 -0.007840883 -0.019352498 0.014517598 0.05291976 -0.029020982
00000000: 7e51 1d3d 44dd 833c 7aa8 8f3a 277d 4ab9
00000010: e6be adbc 880e 91bd ee52 b83a 9bba ebba
00000020: 272b d53c 5683 b63c d5e1 0abd 0c77 00bc
00000030: 2189 9ebc 38db 6d3c 64c2 583d 69bd edbc

conv_block2.bn.weight f4 [16]
0.8497633 0.7374365 0.8259893 0.8654025 0.84705067 0.7819393 0.838538 0.893984
0.79603976 0.75339824 0.8274042 0.82998866 0.7969142 0.81789166 0.87098914 0.8159496
00000000: 168a 593f a3c8 3c3f 0974 533f 058b 5d3f
00000010: 50d8 583f 2d2d 483f 6daa 563f 23dc 643f
00000020: 43c9 4b3f b5de 403f c3d0 533f 237a 543f
00000030: 9202 4c3f 5961 513f 25f9 5e3f 13e2 503f

conv_block2.bn.bias f4 [16]
0.003213187 -0.0027047785 -0.038594477 -0.04365126 -0.04235805 -0.06773691 -0.08566899 -0.13795145
-0.018602407 -0.010779858 -0.10032847 0.010570284 -0.036718972 -0.17132697 -0.09931072 0.00055767526
00000000: 5594 523b a742 31bb 3e15 1ebd aacb 32bd
00000010: a27f 2dbd a6b9 8abd 3973 afbd 2543 0dbe
00000020: 1364 98bc 009e 30bc 0379 cdbd fc2e 2d3c
00000030: a266 16bd 5670 2fbe 6b63 cbbd f430 123a

conv_block2.bn.running_mean f4 [16]
-0.052634556 0.083345756 0.030859925 -0.07255531 -0.3460261 -0.28372794 -0.06944978 -0.0902554
0.112978674 -0.09039933 0.17160895 0.20255966 -0.10905043 0.025732707 -0.17271945 -0.14084557
00000000: 5597 57bd 2eb1 aa3d f4cd fc3c e197 94bd
00000010: 552a b1be ca44 91be b03b 8ebd d3d7 b8bd
00000020: 5d61 e73d 4923 b9bd 42ba 2f3e cd6b 4f3e
00000030: d555 dfbd 66cd d23c 5edd 30be d239 10be

conv_block2.bn.running_var f4 [16]
0.104618974 0.12430489 0.17951219 0.16203488 0.1726493 0.17393292 0.09645748 0.14955845
0.1054396 0.12894452 0.13348296 0.19460095 0.14025319 0.22025995 0.11117908 0.11688463
00000000: 7942 d63d 9093 fe3d 0bd2 373e 79ec 253e
00000010: faca 303e 791b 323e 808b c53d da25 193e
00000020: b8f0 d73d 080a 043e c2af 083e 7945 473e
00000030: 889e 0f3e d38b 613e dcb1 e33d 3561 ef3d

res_block1.conv.weight f4 [16, 16, 3, 3]
-0.008085088 -0.14545932 0.08819548 0.026885685 -0.18271308 -0.156524 0.07983302 -0.14224009
0.020118222 -0.09758559 0.0059300787 0.02573145 0.25249398 -0.052294675 -0.006753628 -0.053538136
0.07584346 -0.124854915 0.15840326 0.18040387 -0.021687485 0.010254822 0.054346245 -0.022163792
0.056678727 0.0016605292 -0.16521415 0.10036496 -0.14930484 -0.16983837 -0.16748115 -0.017197695
-0.24645193 -0.050531603 0.12236868 0.16577895 -0.100667685 0.012491306 0.035046645 -0.06751235
0.07139406 0.1911785 0.06288748 -0.08466314 -0.010680949 -0.11750748 -0.08428995 -0.0022261047
-0.18627094 -0.030698601 0.010057789 0.21164605 0.01486019 -0.14530468 -0.098282225 0.06458172
0.057009242 -0.0038910373 -0.026260206 0.052538197 0.05540814 -0.12020257 0.1318405 0.0974666
0.09825938 -0.15333936 0.27475438 -0.2395662 0.2092728 -0.16903137 -0.009839257 -0.10234173
0.07555765 0.03722065 -0.15865675 -0.10358669 -0.09086295 0.026728703 0.0030496262 0.074846335
0.038979042 -0.16483402 0.068521425 0.018162156 0.16406977 0.043891028 0.05495233 0.26936746
-0.24609676 -0.10371035 -0.11080027 -0.008095259 -0.20601273 0.06314069 0.0424971 0.18233016
-0.12658554 -0.019498615 -0.023146423 0.1400723 -0.067814745 -0.030867482 -0.1869944 0.1595718
-0.019763244 -0.39879468 -0.09291239 0.09261267 -0.1718683 0.20294653 0.028249389 -0.052406225
-0.087141246 0.024028696 0.2380791 -0.09115768 -0.18065394 0.0413358 0.009370536 -0.018117428
0.08289781 0.20280674 -0.015700614 -0.14150463 0.103932425 -0.19230402 -0.010578996 -0.014279104
0.3861108 -0.02062754 -0.19112453 0.17096555 0.43564877 0.21233146 -0.22408037 0.088013515
-0.27941674 -0.042443927 0.1153484 -0.14835289 0.12550995 -0.034449656 -0.19903775 0.10987007
-0.09460266 -0.14513007 0.07991027 -0.0022875674 -0.0075648683 -0.15871066 -0.02425696 0.018663041
-0.10197714 -0.010652708 0.18695022 0.08484549 0.056560915 -0.1381584 0.22039233 -0.053820137
0.09062604 -0.16214539 -0.21401082 0.06730924 0.030657921 -0.1908066 0.17348494 0.008617379
0.008018453 0.12665573 0.15244868 -0.22659741 -0.11595789 0.14994122 -0.019396883 0.08538627
-0.008086843 -0.073117 0.035014663 -0.06973404 0.11504671 -0.09271432 -0.16715376 -0.15991977
0.09703095 -0.1172288 -0.11607258 0.072416835 -0.18185899 0.11727905 0.030042093 0.20280504
0.16405345 -0.18012327 0.035449505 -0.016721707 -0.012225322 0.27996746 -0.097439796 -0.0038876089
-0.23925567 -0.034369163 -0.05631259 0.08459134 0.0061243502 -0.0033646075 0.0064142575 -0.15950787
-0.056305412 0.18275993 0.07800323 0.0101542175 -0.044799972 -0.014187969 -0.18476152 -0.1997533
0.07886211 -0.29229867 -0.08308828 -0.17987777 0.03962581 -0.13470992 -0.24539123 0.26804423
0.0061926837 -0.19157363 0.03944799 0.017713724 -0.14178179 0.08336916 -0.09880926 0.057281703
0.060492463 0.18808495 -0.018486563 -0.043115098 0.10387393 -0.016078401 -0.074624196 0.17187396
-0.31962538 0.060461838 -0.22707385 0.19014516 0.16048676 0.16397423 0.10257558 -0.09609557
-0.07018963 -0.039490476 -0.032577764 -0.036204413 0.014248779 -0.2020994 -0.0956274 -0.062054753
00000000: 5177 04bc 4af3 14be d59f b43d 5e3f dc3c
00000010: 2319 3bbe d447 20be 7f7f a33d 63a7 11be
00000020: f8ce a43c f4da c7bd 1b51 c23b c3ca d23c
00000030: e446 813e f132 56bd 8a4d ddbb ce4a 5bbd
00000040: d153 9b3d efb3 ffbd 7734 223e cbbb 383e
00000050: f4a9 b1bc d703 283c 2b9a 5e3d d790 b5bc
00000060: f427 683d 1da6 d93a e62d 29be 258c cd3d
00000070: 5ee3 18be 1cea 2dbe 2e80 2bbe 2ee2 8cbc
00000080: e55d 7cbe 3afa 4ebd 6e9c fa3d f5c1 293e
00000090: dc2a cebd 56a8 4c3c 128d 0f3d ea43 8abd
000000a0: 0d37 923d 4cc4 433e 27cb 803d de63 adbd
000000b0: 26ff 2ebc c3a7 f0bd 36a0 acbd d7e3 11bb
000000c0: cfbd 3ebe a27b fbbc 6dc9 243c beb9 583e
000000d0: 2878 733c c0ca 14be 3148 c9bd 6c43 843d
000000e0: 8682 693d c600 7fbb a51f d7bc 4b32 573d
000000f0: a5f3 623d c42c f6bd 3201 073e 929c c73d
00000100: 373c c93d fe04 1dbe 9bac 8c3e d850 75be
00000110: 9c4b 563e 8f16 2dbe d634 21bc 8a98 d1bd
00000120: f8bd 9a3d ae74 183d ea76 22be 4225 d4bd
00000130: 5b16 babd 27f6 da3c 3ddc 473b 0949 993d
00000140: 7da8 1f3d 40ca 28be f654 8c3d cdc8 943c
00000150: e801 283e 14c7 333d b215 613d 88ea 893e
00000160: ca00 7cbe 1866 d4bd 41eb e2bd faa1 04bc
00000170: 00f5 52be e84f 813d 7011 2e3d c2b4 3a3e
00000180: a49f 01be 8fbb 9fbc 919d bdbc 1d6f 0f3e
00000190: 75e2 8abd cddd fcbc 767b 3fbe ca66 233e
000001a0: 87e6 a1bc d12e ccbe da48 bebd b6ab bd3d
000001b0: 3efe 2fbe 37d1 4f3e 436b e73c e9a7 56bd
000001c0: 1c77 b2bd d4d7 c43c 02cb 733e e1b0 babd
000001d0: 59fd 38be ba4f 293d e086 193c 006b 94bc
000001e0: 54c6 a93d 92ac 4f3e 939e 80bc 97e6 10be
000001f0: 86da d43d 58eb 44be 8653 2dbc e7f2 69bc
00000200: 51b0 c53e 16fb a8bc 26b6 43be 9811 2f3e
00000210: 5b0d df3e 6b6d 593e 5375 65be 6e40 b43d
00000220: b60f 8fbe afd9 2dbd c83b ec3d d2e9 17be
00000230: ae85 003e 151b 0dbd 8dd0 4bbe 8f03 e13d
00000240: 0abf c1bd fa9c 14be ffa7 a33d 03eb 15bb
00000250: b7e2 f7bb 0c85 22be 88b6 c6bc 3ce3 983c
00000260: 64d9 d0bd b288 2ebc e16f 3f3e 79c3 ad3d
00000270: 6bac 673d 6579 0dbe 87ae 613e 8172 5cbd
00000280: 259a b93d 7109 26be a725 5bbe 6dd9 893d
00000290: 5226 fb3c ce62 43be 09a6 313e e82f 0d3c
000002a0: d45f 033c 0ab2 013e 821b 1c3e 2709 68be
000002b0: 557b edbd 318a 193e 36e6 9ebc ffde ae3d
000002c0: ae7e 04bc 5ebe 95bd 896b 0f3d b8d0 8ebd
000002d0: 9c9d eb3d 01e1 bdbd 5b2a 2bbe 02c2 23be
000002e0: 2ab8 c63d a715 f0bd 76b7 edbd 474f 943d
000002f0: 3e39 3abe 0030 f03d d61a f63c 20ac 4f3e
00000300: a1fd 273e 3c72 38be 8033 113d f6fb 88bc
00000310: b84c 48bc e557 8f3e 848e c7bd 41c7 7ebb
00000320: 70ff 74be aec6 0cbd 08a8 66bd 393e ad3d
00000330: c6ae c83b bf80 5cbb b12e d23b 0856 23be
00000340: 81a0 66bd 6b25 3b3e 28c0 9f3d e05d 263c
00000350: 2d80 37bd a874 68bc 2032 3dbe 218c 4cbe
00000360: 7582 a13d 2ca8 95be 302a aabd e131 38be
00000370: ac4e 223d 66f1 09be d747 7bbe 183d 893e
00000380: ffeb ca3b e12b 44be 3794 213d 5f1c 913c
00000390: 3f2f 11be 73bd aa3d 825c cabd 38a0 6a3d
000003a0: f2c6 773d 5799 403e 2271 97bc 7599 30bd
000003b0: dbbb d43d dab6 83bc 92d4 98bd baff 2f3e
000003c0: f0a5 a3be d5a6 773d 0c86 68be 6ab5 423e
000003d0: a456 243e dce8 273e 2513 d23d c1cd c4bd
000003e0: 95bf 8fbd c4c0 21bd 4370 05bd 144b 14bd
000003f0: b673 693c 25f3 4ebe 4cd8 c3bd 202d 7ebd

res_block1.conv.bias f4 [16]
0.007789594 -0.012662639 -0.01716316 0.0074865464 0.0045231855 0.022022322 -0.01933435 -0.008161859
0.017946707 -0.0037849972 0.0026354482 -0.013369209 -0.012465108 -0.015403368 -0.0032811242 0.009035695
00000000: da3f ff3b f576 4fbc c199 8cbc b451 f53b
00000010: 3b37 943b 2868 b43c 1263 9ebc 51b9 05bc
00000020: f904 933c b70d 78bb 7cb7 2c3b 870a 5bbc
00000030: 743a 4cbc 685e 7cbc 2108 57bb 740a 143c

res_block1.bn.weight f4 [16]
0.91503453 0.8787548 0.94204754 1.0192525 0.8725675 0.86788565 1.0091449 0.9296979
0.9052014 1.0151154 0.89898956 0.9375788 0.9253685 0.98893845 0.861282 0.92209196
00000000: b43f 6a3f 13f6 603f 072a 713f de76 823f
00000010: 9560 5f3f c12d 5e3f a92b 813f ae00 6e3f
00000020: 47bb 673f 4def 813f 2e24 663f 2a05 703f
00000030: f3e4 6c3f 122b 7d3f fa7c 5c3f 380e 6c3f

res_block1.bn.bias f4 [16]
-0.021682605 -0.08444678 -0.0914938 -0.051802643 -0.10275231 -0.018722214 -0.123514205 -0.098452345
0.004189625 -0.06521865 -0.09402363 -0.1992969 -0.17175984 -0.14948183 -0.03263613 -0.03259979
00000000: b89f b1bc 6ff2 acbd 1a61 bbbd 022f 54bd
00000010: ce6f d2bd 545f 99bc 04f5 fcbd 62a1 c9bd
00000020: 1f49 893b 5b91 85bd 768f c0bd 7d14 4cbe
00000030: d0e1 2fbe c411 19be 76ad 05bd 5b87 05bd

res_block1.bn.running_mean f4 [16]
-0.2670679 -0.08061246 -0.52155906 -0.64438415 -0.032693032 -0.27560958 -0.024991201 -0.039063998
0.12764376 -0.06489909 -0.2719594 -0.45209703 -0.14210463 -0.035537474 -0.6861143 -0.03437734
00000000: 20bd 88be 2518 a5bd e584 05bf 5cf6 24bf
00000010: 21e9 05bd b31c 8dbe 59ba ccbc 9201 20bd
00000020: 0cb5 023e d0e9 84bd 433e 8bbe 4379 e7be
00000030: e083 11be be8f 11bd 30a5 2fbf 41cf 0cbd

res_block1.bn.running_var f4 [16]
0.40070257 0.42623198 0.510442 0.51548296 0.509754 0.35570905 0.29783607 0.39384136
0.34350282 0.23793192 0.62276554 0.28273943 0.5200879 0.39855495 0.48604447 0.42847204
00000000: e328 cd3e 143b da3e 54ac 023f b1f6 033f
00000010: 3d7f 023f 7f1f b63e f87d 983e 93a5 c93e
00000020: 9adf af3e 6da4 733e 906d 1f3f 39c3 903e
00000030: 7b24 053f 650f cc3e d2da f83e b060 db3e

res_block2.conv.weight f4 [16, 16, 3, 3]
-0.055765796 -0.108925015 0.028449379 -0.2500136 0.08072851 -0.108414516 -0.005685307 -0.025301134
-0.06482911 -0.309085 -0.17763114 -0.045793545 0.079561636 0.17463782 0.10442038 0.03467408
0.03972039 -0.09272077 0.31143975 -0.15949598 -0.023783317 -0.079825334 -0.0808942 -0.22367416
-0.15910655 0.063459285 0.17146428 0.027266603 0.011331284 -0.065285414 0.18586932 0.032918938
0.20421527 -0.08449121 -0.012135677 0.0009027123 -0.16047452 -0.22421911 0.06739981 0.178586
-0.123052925 -0.12702738 -0.18357645 -0.004900741 -0.119228974 -0.053123258 -0.060424354 0.159979
-0.042674363 0.15379715 0.25579795 0.01651618 -0.167893 0.16785845 0.1823284 -0.17355347
-0.037136454 0.032719452 -0.06690533 0.05955113 -0.012949885 -0.010227774 -0.11324064 0.07285154
-0.3076063 -0.1391297 -0.07140825 -0.16572106 0.096541755 0.036425933 -0.22714807 -0.016614744
-0.04826032 -0.15025619 0.048674654 -0.065373816 0.0807117 0.053764787 0.021325087 -0.039275803
-0.029691704 -0.069651715 -0.19134279 -0.10236485 -0.084526494 -0.12831761 -0.03236769 -0.09726437
-0.1331492 -0.003917948 0.1751304 -0.08428807 0.03211674 0.07234732 -0.14827366 0.27602714
0.07254561 0.1627138 -0.011730657 0.018726675 0.15111196 -0.07768937 0.1349373 -0.36661914
-6.503517e-05 -0.18163528 -0.014554303 -0.060955703 -0.068656154 0.15787397 -0.082223564 -0.21356931
0.1038711 -0.17875794 0.03885139 0.09671216 0.11580216 -0.19570605 -0.03591769 -0.092659764
0.08751222 0.0031002485 0.19364691 -0.006786448 0.081183724 -0.0101885805 0.017118206 -0.0018431686
0.15546581 -0.05934279 0.12613754 0.23262028 -0.25686923 0.049425647 -0.015434796 0.010412765
-0.07463788 0.019339891 -0.23214653 0.20264365 -0.015385726 0.08182003 0.019613653 -0.018836617
0.19085802 -0.11445394 -0.035547838 0.12061733 0.021528862 -0.075429715 -0.32557744 0.025295611
0.079711966 -0.04765741 0.026395597 3.444936e-05 0.05492521 0.2438377 -0.16597159 0.062071357
-0.16623457 0.062092338 0.106969744 -0.24211946 -0.07462811 -0.11482945 -0.11111821 0.16821843
0.03600609 -0.030254979 0.07331979 0.029644618 0.113100104 -0.0156794 -0.039862093 0.07209712
-0.11611405 -0.050468415 0.08080915 0.1777422 -0.04814022 0.028319292 -0.07913468 0.091369264
-0.17416911 -0.08200962 -0.003082262 -0.12202628 -0.0876205 -0.1222914 -0.18687458 -0.084317096
0.20700388 -0.26592514 0.049491994 -0.06300388 -0.15324195 0.08077227 -0.32373077 0.03143451
0.24553965 -0.024286686 -0.09428356 0.08525386 -0.07718107 0.10573809 0.0355402 -0.002247169
0.00031923578 0.14116825 -0.134259 0.19536643 0.07120793 -0.19657996 -0.047991462 -0.14097154
-0.21003401 -0.16390292 -0.009061827 -0.008085773 0.047045853 0.110392235 -0.19828376 0.115990035
0.19134103 -0.033736408 -0.052615955 0.20493066 0.049929537 -0.08044078 0.08446773 0.16199605
-0.2716212 -0.11026103 0.062174067 -0.03507203 -0.027145963 -0.052934375 -0.13628998 -0.016236544
0.106531285 -0.19009084 -0.05436838 -0.08279938 0.006784272 0.06752802 0.17400579 0.046375323
-0.12937367 0.28948727 -0.12104616 -0.06713835 0.2759718 0.052714154 0.006462331 -0.053864837
00000000: ad6a 64bd 1414 dfbd ac0e e93c c801 80be
00000010: fd54 a53d 6e08 debd d04b babb 5344 cfbc
00000020: 20c5 84bd 6440 9ebe f0e4 35be 0392 3bbd
00000030: 36f1 a23d 42d4 323e 5ada d53d 6806 0e3d
00000040: d9b1 223d 63e4 bdbd 0875 9f3e ea52 23be
00000050: 3bd5 c2bc 777b a3bd dcab a5bd d70a 65be
00000060: d4ec 22be f1f6 813d 5594 2f3e 365e df3c
00000070: daa6 393c 5cb4 85bd 8754 3e3e 02d6 063d
00000080: cf1d 513e ba09 adbd b8d4 46bc ffa3 6c3a
00000090: 6f53 24be b299 65be e908 8a3d 40df 363e
000000a0: 2c03 fcbd 7713 02be 77fb 3bbe 6596 a0bb
000000b0: 522e f4bd c697 59bd 877f 77bd 89d1 233e
000000c0: 50cb 2ebd 007d 1d3e f3f7 823e f14c 873c
000000d0: 25ec 2bbe 16e3 2b3e 4cb4 3a3e 00b8 31be
000000e0: 651c 18bd d504 063d a905 89bd e3eb 733d
000000f0: c12b 54bc 6592 27bc b5ea e7bd 3033 953d
00000100: 937e 9dbe 0478 0ebe 7d3e 92bd c8b2 29be
00000110: afb7 c53d 5c33 153d 8199 68be a51b 88bc
00000120: 9dac 45bd c2dc 19be 135f 473d b5e2 85bd
00000130: 2d4c a53d 7738 5c3d f3b1 ae3c aadf 20bd
00000140: 043c f3bc 8fa5 8ebd 5def 43be aaa4 d1bd
00000150: 3a1c adbd b165 03be fc93 04bd 8b32 c7bd
00000160: 4458 08be 2162 80bb 6255 333e 399f acbd
00000170: d88c 033d d52a 943d 0dd5 17be 6e53 8d3e
00000180: cb92 943d 729e 263e f131 40bc af68 993c
00000190: 18bd 1a3e 9b1b 9fbd 012d 0a3e 81b5 bbbe
000001a0: 7e63 88b8 99fe 39be 2c75 6ebc b0ac 79bd
000001b0: 999b 8cbd b7a9 213e d464 a8bd eab1 5abe
000001c0: 5fba d43d 520c 37be a322 1f3d 0611 c63d
000001d0: af29 ed3d 2b67 48be 6d1e 13bd 67c4 bdbd
000001e0: 9b39 b33d 8a2d 4b3b 604b 463e da60 debb
000001f0: a743 a63d 01ee 26bc 7b3b 8c3c 7a96 f1ba
00000200: 6e32 1f3e 6d11 73bd 332a 013e 0334 6e3e
00000210: 5d84 83be 8c72 4a3d 3ae2 7cbc 4d9a 2a3c
00000220: bfdb 98bd b16e 9e3c d2b7 6dbe d181 4f3e
00000230: 6914 7cbc 4391 a73d d0ac a03c 404f 9abc
00000240: 4970 433e d466 eabd 9c9a 11bd 3806 f73d
00000250: 4c5d b03c e57a 9abd 16b2 a6be be38 cf3c
00000260: 0740 a33d 6b34 43bd 943b d83c b87d 1038
00000270: 42f9 603d 97b0 793e 75f4 29be 893e 7e3d
00000280: 6539 2abe 8954 7e3d f412 db3d 2aee 77be
00000290: 9fd6 98bd b42b ebbd f291 e3bd 7441 2c3e
000002a0: 1f7b 133d 4ad9 f7bc b028 963d 45d9 f23c
000002b0: 07a1 e73d 1672 80bc 6f46 23bd a8a7 933d
000002c0: 34cd edbd f8b7 4ebd 457f a53d 0d02 363e
000002d0: ae2e 45bd dcfd e73c 5d11 a2bd cf1f bb3d
000002e0: 6359 32be a9f4 a7bd c6ff 49bb eae8 f9bd
000002f0: 6072 b3bd ea73 fabd 0d5c 3fbe 71ae acbd
00000300: d3f8 533e 5727 88be 1eb8 4a3d 2e08 81bd
00000310: 75eb 1cbe ef6b a53d 0ac0 a5be 79c1 003d
00000320: bf6e 7b3e dff4 c6bc bd17 c1bd 9399 ae3d
00000330: 1c11 9ebd 368d d83d 9a92 113d 3d45 13bb
00000340: 1a5f a739 698e 103e 317b 09be 230e 483e
00000350: 77d5 913d 424c 49be b292 44bd d85a 10be
00000360: 2813 57be 2bd6 27be 0f78 14bc 317a 04bc
00000370: 27b3 403d 5315 e23d e60a 4bbe 2f8c ed3d
00000380: e7ee 433e 302f 0abd d483 57bd 58d9 513e
00000390: ea82 4c3d 23be a4bd 6bfd ac3d 4be2 253e
000003a0: ef11 8bbe 89d0 e1bd 3caa 7e3d b0a7 0fbd
000003b0: 3661 debc b7d1 58bd 9a8f 0bbe 8002 85bc
000003c0: 132d da3d 2ca7 42be 61b1 5ebd b992 a9bd
000003d0: 994e de3b 214c 8a3d 932e 323e 0df4 3d3d
000003e0: 887a 04be ad37 943e 0de7 f7bd d57f 89bd
000003f0: 2d4c 8d3e ccea 573d f6c1 d33b 60a1 5cbd

res_block2.conv.bias f4 [16]
-0.016555138 -0.000196986 -0.014586643 0.0063533895 -0.0042019514 -0.0048751845 0.016421176 0.006560777
0.010278416 -0.0048524863 0.006886341 -0.010547709 -0.0004518928 -0.0076955473 -0.007971306 -0.003959443
00000000: a49e 87bc 078e 4eb9 d1fc 6ebc 1830 d03b
00000010: 86b0 89bb 03c0 9fbb b485 863c c9fb d63b
00000020: cd66 283c 9b01 9fbb d1a6 e13b 4cd0 2cbc
00000030: 06ec ecb9 ee2a fcbb 159a 02bc 37be 81bb

res_block2.bn.weight f4 [16]
0.98589706 1.0854119 0.99481946 1.0346948 0.96767867 1.0086534 1.0980481 1.040318
1.0901353 0.9866074 0.9898876 1.1733186 1.016422 0.81091684 0.9885893 1.1021674
00000000: c063 7c3f c7ee 8a3f 7dac 7e3f e170 843f
00000010: cab9 773f 8e1b 813f d78c 8c3f 2429 853f
00000020: 8e89 8b3f 4d92 7c3f 4669 7d3f 4e2f 963f
00000030: 1e1a 823f 3f98 4f3f 3014 7d3f d213 8d3f

res_block2.bn.bias f4 [16]
-0.077866316 -0.10301739 -0.058757264 -0.047704488 0.037474696 -0.16438146 -0.08887719 -0.061666213
0.018293364 0.02824546 -0.034606263 -0.1894363 -0.121889725 -0.08321712 -0.08747739 -0.10822565
00000000: 6078 9fbd c8fa d2bd 75ab 70bd c865 43bd
00000010: 117f 193d 9d53 28be 3f05 b6bd b695 7cbd
00000020: f7db 953c 0663 e73c 4cbf 0dbd 97fb 41be
00000030: 52a1 f9bd bd6d aabd 5927 b3bd 69a5 ddbd

res_block2.bn.running_mean f4 [16]
-0.84932077 -0.3947915 -0.2544717 -0.056345202 0.0042381934 0.49416813 -0.1837463 -0.2708167
0.056646872 0.09801752 0.31230628 -0.7962308 -0.2730775 -0.7227339 -0.7195057 -0.724248
00000000: 166d 59bf 1d22 cabe 1d4a 82be 3aca 66bd
00000010: 8be0 8a3b 9b03 fd3e fd27 3cbe 7da8 8abe
00000020: 8d06 683d 69bd c83d 9ce6 9f3e c8d5 4bbf
00000030: d0d0 8bbe 1705 39bf 8731 38bf 5168 39bf

res_block2.bn.running_var f4 [16]
0.72567207 0.51365983 0.6392227 0.7048225 0.73505944 0.8944826 0.44603002 0.6179616
0.70445466 0.7307494 0.59949225 0.6505263 1.0771481 1.0025371 0.58213794 0.5986112
00000000: a5c5 393f 367f 033f 19a4 233f 3f6f 343f
00000010: db2c 3c3f d0fc 643f 0c5e e43e bb32 1e3f
00000020: 2457 343f 6512 3b3f 5378 193f e488 263f
00000030: fddf 893f 2353 803f fe06 153f 953e 193f

res_block3.conv.weight f4 [16, 16, 3, 3]
-0.10333505 -0.005269688 -0.007325686 0.06290599 0.0954592 -0.03686015 0.11611406 -0.2797778
0.03932273 0.23788454 -0.12229685 -0.031278435 -0.0061361995 -0.09726301 0.21077088 0.17845607
0.036501333 0.10404623 -0.11165842 -0.09391015 -0.067730576 0.15882705 -0.14838366 -0.1549308
-0.042008236 0.030096842 -0.13354602 -0.03560239 0.12159261 0.1631591 -0.10605499 -0.034911174
0.23391485 0.07260322 0.05773386 -0.039460044 0.09214878 0.15028733 -0.24835141 -0.018728003
-0.074504495 -0.18365009 0.04823213 0.074053176 0.27394518 0.16002251 -0.08831395 -0.008351812
0.01923577 0.15433085 -0.22953223 -0.28763285 -0.19921358 0.017469944 0.0069492524 0.008365069
0.07650134 0.11367579 -0.15356727 0.15880235 0.17017327 0.24868008 -0.058257494 0.12943043
-0.059635207 -0.12882453 -0.08181685 -0.167156 0.06672697 -0.17231382 0.17485085 -0.06977335
0.022378378 -0.039417487 0.20633397 0.033034977 0.11611825 -0.21445222 0.050046682 -0.00712633
0.052090228 0.13153885 -0.25634384 -0.11164674 0.067462064 -0.015640354 0.12508056 -0.28139833
0.118493795 0.09724313 0.18353984 -0.18489727 0.020060657 -0.009646312 -0.23187184 -0.1692797
-0.08214784 0.07117121 -0.16163315 0.057327002 0.087679796 0.25896144 0.118707694 0.13418065
-0.0419887 0.13113259 0.13989374 0.018270608 -0.17715819 -0.10382006 -0.1070823 -0.061266012
0.09857895 0.015776794 -0.19653863 -0.14924736 0.14361684 0.09648113 0.08476039 0.034925584
0.011807228 0.1225116 -0.018925602 -0.15204483 -0.1401229 0.14401495 -0.056531932 0.022418682
0.12623164 0.10093579 -0.21832174 0.042941578 -0.1806782 -0.06803531 -0.055060584 0.042618494
0.17655295 -0.029650752 0.1491153 -0.07231117 0.13105704 -0.10900529 -0.04173296 0.12201053
-0.043224238 -0.037345365 -0.014952861 0.09525459 0.008738499 -0.061586056 -0.048916336 -0.07724213
0.09372621 0.116389155 0.0977108 0.13264377 -0.006712101 0.0019020356 0.0049176104 -0.033202395
0.051459443 0.19695897 -0.04701042 -0.13587756 0.017460845 -0.08250684 -0.037481498 -0.021379026
-0.060168363 -0.11833327 -0.15358675 -0.0037511785 -0.0044691 0.052900344 -0.30336866 0.20147534
-0.12897183 0.046008483 -0.056896366 -0.15053855 -0.018513037 -0.1428405 -0.0220505 -0.12462535
0.0880664 -0.030511366 0.12186769 -0.15212686 -0.012718472 0.07425063 0.016079767 0.19014229
0.17986092 -0.1966291 -0.12820937 0.0549666 0.12181227 -0.0017366679 0.15247239 -0.14146736
0.02450099 -0.036315788 -0.010723192 0.08584517 0.14840212 -0.2621498 -0.0049921293 0.15944019
0.30130133 -0.11697634 -0.24684714 -0.116285056 0.10193361 -0.008550571 -0.2643767 -0.2732841
-0.071970195 -0.007496679 -0.2668432 0.08773658 -0.047338136 -0.26396284 -0.11419645 0.10764496
-0.1726478 -0.060430262 0.08097987 0.09216569 0.18215486 -0.013468575 0.10722757 0.077963755
0.25362068 -0.12120135 -0.1347693 0.011969372 -0.10125444 -0.06899263 0.1541076 -0.086475365
-0.12560467 0.06084007 -0.022175815 -0.0061746174 0.048180796 0.08035751 0.029984113 -0.021429492
-0.05394738 -0.08356843 -0.014981487 -0.059710316 -0.080355264 0.08731041 -0.0799434 -0.12812279
00000000: 54a1 d3bd 59ad acbb 4f0c f0bb dbd4 803d
00000010: 1d80 c33d abfa 16bd 35cd ed3d 093f 8fbe
00000020: df10 213d 0198 733e c576 fabd d11d 00bd
00000030: 2c12 c9bb d431 c7bd 52d4 573e 30bd 363e
00000040: 6c82 153d 3116 d53d 2bad e4bd f753 c0bd
00000050: 54b6 8abd 8fa3 223e e3f1 17be 2ea6 1ebe
00000060: d410 2cbd a78d f63c 4ac0 08be d0d3 11bd
00000070: 8c05 f93d 2e13 273e 5c33 d9bd 05ff 0ebd
00000080: 6087 6f3e ffb0 943d 577a 6c3d dba0 21bd
00000090: 80b8 bc3d ece4 193e d54f 7ebe 786b 99bc
000000a0: d095 98bd c50e 3cbe 0e8f 453d 31a9 973d
000000b0: 8b42 8c3e f1dc 233e f2dd b4bd 0ad6 08bc
000000c0: 5594 9d3c e808 1e3e 7f0a 6bbe 9d44 93be
000000d0: a5fe 4bbe 211d 8f3c 8eb6 e33b a40d 093c
000000e0: bcac 9c3d dace e83d bd40 1dbe 159d 223e
000000f0: e741 2e3e fea5 7e3e 699f 6ebd 6989 043e
00000100: 0c44 74bd 94ea 03be 988f a7bd f12a 2bbe
00000110: 26a8 883d 0973 30be 1a0c 333e 55e5 8ebd
00000120: dc52 b73c 3b74 21bd 3649 533e af4f 073d
00000130: 68cf ed3d 5d99 5bbe c0fd 4c3d fd83 e9bb
00000140: 905c 553d 1fb2 063e 803f 83be 0ca7 e4bd
00000150: 8d29 8a3d 3320 80bc 1e15 003e 7113 90be
00000160: e0ac f23d 6827 c73d def1 3b3e b655 3dbe
00000170: 3f56 a43c 910b 1ebc d06f 6dbe a857 2dbe
00000180: 203d a8bd 36c2 913d 2983 25be b8cf 6a3d
00000190: 7791 b33d 9896 843e 051d f33d a766 093e
000001a0: 58fc 2bbd 9f47 063e 4e40 0f3e 3eac 953c
000001b0: f568 35be 9d9f d4bd f74d dbbd 12f2 7abd
000001c0: c3e3 c93d 563e 813c 6c41 49be 4dd4 18be
000001d0: 4b10 133e e697 c53d db96 ad3d 210e 0f3d
000001e0: 1b73 413c 5de7 fa3d dd09 9bbc a4b1 1bbe
000001f0: 617c 0fbe a878 133e 078e 67bd 62a7 b73c
00000200: de42 013e 6cb7 ce3d bc8f 5fbe 82e3 2f3d
00000210: b503 39be 1956 8bbd 3587 61bd bb90 2e3d
00000220: 4cca 343e 22e6 f2bc aeb1 183e e117 94bd
00000230: d133 063e 2a3e dfbd 2ef0 2abd a8e0 f93d
00000240: e60b 31bd 74f7 18bd d8fc 74bc d714 c33d
00000250: ec2b 0f3c a941 7cbd 7f5c 48bd 1f31 9ebd
00000260: 87f3 bf3d 705d ee3d 9a1c c83d c5d3 073e
00000270: 2ff1 dbbb b94d f93a e823 a13b 3cff 07bd
00000280: 23c7 523d 9daf 493e 008e 40bd 7d23 0bbe
00000290: 0c0a 8f3c 59f9 a8bd 3386 19bd 1123 afbc
000002a0: 1a73 76bd b758 f2bd d845 1dbe 55d6 75bb
000002b0: 8771 92bb 08ae 583d 2353 9bbe 8d4f 4e3e
000002c0: 3111 04be 6473 3c3d 2a0c 69bd c726 1abe
000002d0: a7a8 97bc c844 12be 40a3 b4bc 933b ffbd
000002e0: 285c b43d f9f2 f9bc c495 f93d 25c7 1bbe
000002f0: 2361 50bc b710 983d b7b9 833c a9b4 423e
00000300: 762d 383e 2459 49be 5149 03be a824 613d
00000310: b678 f93d e8a0 e3ba b921 1c3e d2dc 10be
00000320: 4db6 c83c ddbf 14bd 54b0 2fbc 98cf af3d
00000330: baf6 173e 8038 86be 0495 a3bb 4a44 233e
00000340: 2b44 9a3e 4b91 efbd 7fc5 7cbe dc26 eebd
00000350: 92c2 d03d b217 0cbc 625c 87be e5eb 8bbe
00000360: 1c65 93bd b4a6 f5bb ac9f 88be 3caf b33d
00000370: a2e5 41bd 2326 87be d4df e9bd f674 dc3d
00000380: 96ca 30be b985 77bd c6d8 a53d 5ec1 bc3d
00000390: ce86 3a3e 4cab 5cbc 219a db3d 76ab 9f3d
000003a0: 92da 813e 6a38 f8bd f700 0abe 2f1b 443c
000003b0: 7d5e cfbd 024c 8dbd 62ce 1d3e ff19 b1bd
000003c0: 839e 00be 7033 793d 0eaa b5bc 7254 cabb
000003d0: 3a59 453d 7a92 a43d 3ea1 f53c e78c afbc
000003e0: eef7 5cbd ed25 abbd e974 75bc ce92 74bd
000003f0: 4d91 a4bd cdcf b23d 5eb9 a3bd 9f32 03be

res_block3.conv.bias f4 [16]
-0.0111755775 -0.0012453964 -0.0062914486 -0.0045674555 -0.008453801 0.00403151 0.0010848481 -0.00021970434
-0.00959885 0.0054074405 0.0035888678 0.0004477154 -0.0042851483 0.0006059819 0.004018684 0.0061968607
00000000: c519 37bc 923c a3ba 7f28 cebb 98aa 95bb
00000010: d081 0abc c21a 843b 7631 8e3a 6f60 66b9
00000020: 7f44 1dbc e630 b13b 3633 6b3b 58bb ea39
00000030: 6e6a 8cbb c2da 1e3a 2aaf 833b 090f cb3b

res_block3.bn.weight f4 [16]
1.0521523 1.35267 1.147197 1.1238152 1.0786735 1.1612805 1.1684748 1.1829532
1.1708603 1.0646349 1.0710219 1.273505 1.4173783 1.1895819 1.0746152 1.1164578
00000000: edac 863f 4a24 ad3f 5ad7 923f 2dd9 8f3f
00000010: f911 8a3f d7a4 943f 9590 953f 036b 973f
00000020: c0de 953f f545 883f 3f17 893f 3602 a33f
00000030: a76c b53f 3844 983f fe8c 893f 17e8 8e3f

res_block3.bn.bias f4 [16]
-0.1010002 -0.117230855 -0.023133889 -0.038175322 -0.07360689 -0.043937612 -0.09345458 -0.09030375
-0.01396357 -0.07501704 -0.09376911 -0.05855279 -0.02583888 -0.1973497 -0.00071691955 -0.08393309
00000000: 31d9 cebd bb16 f0bd 4883 bdbc ba5d 1cbd
00000010: 36bf 96bd edf7 33bd 1d65 bfbd 2cf1 b8bd
00000020: 75c7 64bc 89a2 99bd 050a c0bd 0dd5 6fbd
00000030: 0fac d3bc 0a16 4abe a8ef 3bba 1de5 abbd

res_block3.bn.running_mean f4 [16]
0.22773297 -0.70810145 -1.5571835 -1.181154 0.099711694 -0.38454753 -0.15240031 -1.6314225
-2.1339273 -0.019601632 -0.86681974 -1.0505229 -0.4032524 -0.49595988 0.13489039 -1.2523558
00000000: d532 693e 2346 35bf ca51 c7bf 0e30 97bf
00000010: a535 cc3d 6ae3 c4be d40e 1cbe 74d2 d0bf
00000020: 4492 08c0 9a93 a0bc e6e7 5dbf 8977 86bf
00000030: 1977 cebe 74ee fdbe b520 0a3e 324d a0bf

res_block3.bn.running_var f4 [16]
0.92704654 0.6636053 0.92815834 1.2167401 0.7517422 1.3009138 0.93927103 1.3015783
1.0034448 1.0800263 1.1438267 1.0644459 0.6131082 1.2113371 0.88684744 0.79667854
00000000: ec52 6d3f 09e2 293f c99b 6d3f 24be 9b3f
00000010: 2d72 403f 5884 a63f 1174 703f 1e9a a63f
00000020: e170 803f 4d3e 8a3f ea68 923f c33f 883f
00000030: a9f4 1c3f 180d 9b3f 6f08 633f 20f3 4b3f

output_conv.weight f4 [1, 16, 3, 3]
-0.03219996 -0.0635667 0.034036387 -0.08286953 -0.075813636 -0.0913336 -0.03032976 -0.00092698477
-0.057360407 -0.089315355 -0.09499601 -0.06780939 0.13106938 -0.034942914 -0.055132125 -0.0016971803
0.07860836 -0.063395016 0.061708685 0.1010961 -0.03141315 0.035734918 0.123891965 0.0069292025
0.039716877 0.05193435 0.107096 0.015583497 0.07765336 -0.06430187 0.03582856 0.07709312
0.03409328 -0.059690014 0.10695517 0.09020418 0.06736764 -0.03586712 -0.009595635 0.046469666
0.07429016 -0.08890158 -0.04154056 0.0748347 0.07802275 -0.040820498 0.07522626 -0.05778834
0.06263171 0.014104774 0.026625566 -0.061048012 -0.08629096 -0.11871405 0.012161894 0.005924658
0.08835756 -0.06567873 0.05288476 0.052756738 -0.08855433 0.015598651 -0.005921928 -0.05566983
-0.0072978134 0.007989637 0.04473285 -0.053423196 0.124452226 -0.010269219 0.0031113299 0.04763327
0.06038778 0.041883126 0.12157306 -0.025308847 0.13385311 0.08872086 0.07120868 0.025555871
0.06916523 -0.063190766 -0.094721675 -0.041660246 -0.006153904 -0.101914324 -0.0949786 0.02543007
-0.0664911 -0.05357342 0.02752565 -0.04301001 -0.076668516 -0.07958662 -0.053562097 -0.04176413
0.07339372 -0.03670523 0.0035484126 -0.006614654 -0.042402614 0.028914137 -0.014218356 0.0014487376
-0.05568034 0.05395344 -0.041848216 0.07213453 -0.15842105 0.09516209 0.083206005 0.059533108
-0.15745983 0.08293566 0.024932666 -0.03492831 -0.16387202 -0.02150065 -0.12667069 0.091159746
-0.045055594 0.026599353 -0.080858685 0.025593316 -0.023775134 0.06809979 -0.054906297 -0.049847603
-0.07877524 -0.05827197 0.006806989 -0.034672286 -0.09875686 -0.044879757 0.03277935 0.059745226
0.010295095 0.08714878 0.016340392 0.12645106 -0.020708317 -0.108409636 0.044079106 0.031476326
00000000: 1be4 03bd 422f 82bd bd69 0b3d 80b7 a9bd
00000010: 2e44 9bbd 1c0d bbbd 1e76 f8bc e500 73ba
00000020: bff2 6abd f8ea b6bd 458d c2bd a6df 8abd
00000030: 0d37 063e 4d20 0fbd 39d2 61bd ec73 deba
00000040: 6bfd a03d 3fd5 81bd 3fc2 7c3d 790b cf3d
00000050: 13ab 00bd c75e 123d 12bb fd3d 5d0e e33b
00000060: 2aae 223d 1db9 543d 2655 db3d ec51 7f3c
00000070: ba08 9f3d b3b0 83bd f8c0 123d ffe2 9d3d
00000080: 65a5 0b3d 847d 74bd 500b db3d f8bc b83d
00000090: 0cf8 893d 67e9 12bd 0337 1dbc fa56 3e3d
000000a0: 7025 983d 0812 b6bd 6f26 2abd ef42 993d
000000b0: 64ca 9f3d 6533 27bd 3a10 9a3d 77b3 6cbd
000000c0: 0e45 803d b617 673c dc1d da3c 7b0d 7abd
000000d0: 51b9 b0bd 5a20 f3bd ae42 473c a223 c23b
000000e0: cff4 b43d 9282 86bd b19d 583d 7317 583d
000000f0: f95b b5bd 7c91 7f3c bc0c c2bb 0c06 64bd
00000100: 7f22 efbb f7e6 023c cb39 373d 48d2 5abd
00000110: cfe0 fe3d 3a40 28bc 74e7 4b3b 1b1b 433d
00000120: 2d59 773d a48d 2b3d 4cfb f83d 8054 cfbc
00000130: ca10 093e 48b3 b53d dbd5 913d 8c5a d13c
00000140: 80a6 8d3d 296a 81bd 70fd c1bd efa3 2abd
00000150: b0a6 c9bb 75b8 d0bd 2484 c2bd b952 d03c
00000160: 7c2c 88bd cd6f 5bbd 797d e13c 442b 30bd
00000170: 6204 9dbd 4ffe a2bd ee63 5bbd dd10 2bbd
00000180: 724f 963d 3958 16bd 7c8c 683b bdbf d8bb
00000190: 5dae 2dbd 57dd ec3c 1cf4 68bc 91e3 bd3a
000001a0: 1111 64bd 48fe 5c3d 0969 2bbd 45bb 933d
000001b0: 2139 22be 58e4 c23d e967 aa3d fdd8 733d
000001c0: 263d 21be 2cda a93d 973f cc3c fd10 0fbd
000001d0: 11ce 27be 2222 b0bc f6b5 01be f6b1 ba3d
000001e0: 378c 38bd e3e6 d93c 3d99 a5bd 13a9 d13c
000001f0: 12c4 c2bc e777 8b3d 6de5 60bd 002d 4cbd
00000200: ea54 a1bd 97ae 6ebd 2a0d df3b 8704 0ebd
00000210: 0941 cabd d6d3 37bd a443 063d 69b7 743d
00000220: c2ac 283c 0f7b b23d 49dc 853c 637c 013e
00000230: 7da4 a9bc df05 debd 4b8c 343d 52ed 003d
