Python/checkpoint.pth (torch, 44002 bytes, 31 tensors)

conv_block1.conv.weight f4 [4, 1, 3, 3]
0	0x3e009843	0.12558083
1	0xbdb37044	-0.08761647
2	0xbe4ed573	-0.20198612
3	0x3eb29a5a	0.34883386
4	0x3d88da20	0.06682229
5	0xbdea6793	-0.114455365
6	0x3d13f8d9	0.03612599
7	0xbd95f010	-0.07321179
8	0xbd25139b	-0.0403019
9	0x3cfc26e7	0.030780269
10	0x3d3d8fc3	0.04627968
11	0x3f1a30b8	0.6023059
12	0x3ced8d25	0.028997967
13	0xbe0b7926	-0.13620433
14	0xbe2f70ec	-0.1713292
15	0x3e81d900	0.2536087
16	0x3ec213ea	0.37905818
17	0x3ec05ae7	0.37569353
18	0x3e12430c	0.14283389
19	0xbe36d93f	-0.1785631
20	0x3e86459c	0.26224983
21	0x3ecf50cf	0.4049134
22	0x3e07b822	0.13253835
23	0xbe44967b	-0.19198029
24	0x3ddfe4cf	0.10932314
25	0xbcfc4f57	-0.030799551
26	0x3bd21cfb	0.006412146
27	0xbe5cc604	-0.21559912
28	0xbe92a2dc	-0.28639877
29	0x3e5c4ee8	0.21514475
30	0xbe533799	-0.20626678
31	0x3e044457	0.12916695
32	0xbe1fbe1d	-0.15599866
33	0x3e11dc1b	0.1424412
34	0xbd7c37cf	-0.06157666
35	0xbea0d688	-0.31413674

conv_block1.conv.bias f4 [4]
0	0x3bb2bc20	0.005454555
1	0xb868cebd	-5.550565e-05
2	0x3bc4cae7	0.006005633
3	0x3ba42a9a	0.0050099613

conv_block1.bn.weight f4 [4]
0	0x3f5b7891	0.85730845
1	0x3f585506	0.84504735
2	0x3f6254c9	0.8841062
3	0x3f60a0e5	0.87745506

conv_block1.bn.bias f4 [4]
0	0x3d3d3cc7	0.04620054
1	0xbd6d839c	-0.05798684
2	0x3dd9a54d	0.10627232
3	0x3ceb3e3f	0.028716205

conv_block1.bn.running_mean f4 [4]
0	0x3d24249b	0.040073972
1	0x3e656a06	0.22403726
2	0x3e0200d2	0.12695625
3	0xbe21f84c	-0.15817374

conv_block1.bn.running_var f4 [4]
0	0x3d9b18d6	0.075730965
1	0x3e5c5916	0.21518359
2	0x3e0ed9b9	0.13950242
3	0x3e002bc5	0.12516697

conv_block2.conv.weight f4 [16, 4, 3, 3]
0	0x3cb69561	0.022288026
1	0x3dd65106	0.10464673
2	0xbd99497d	-0.0748472
3	0xbd0cfbfb	-0.034419995
4	0x3d814d56	0.06313579
5	0xbd593dfd	-0.053037632
6	0xbd080025	-0.033203263
7	0xbe00a6ea	-0.12563673
8	0xbd819108	-0.06326491
9	0x3def9052	0.11697449
10	0x3cc3191b	0.023815682
11	0x3dc94ebf	0.09829473
12	0x3dd07c2d	0.10179935
13	0xbd077b59	-0.033076618
14	0xbce8bf32	-0.028411482
15	0xbd8dc616	-0.069225475
16	0x3e17a198	0.14807737
17	0xbea553dc	-0.32290542
18	0x3dfe8536	0.12427752
19	0xbdc04d64	-0.09389761
20	0x3dfcac9e	0.123376116
21	0x3daba541	0.08381129
22	0xbe3cffef	-0.18457006
23	0x3da20917	0.0791189
24	0xbd3a536a	-0.045489706
25	0xbd111c6e	-0.035427503
26	0x3dc6b0d6	0.097016975
27	0x3c03650d	0.008019698
28	0x3e261922	0.16220525
29	0xbdc15bb7	-0.09441321
30	0x3e410592	0.18849781
31	0x3def35e1	0.116801985
32	0xbd18d04c	-0.037308022
33	0x3d52b776	0.051444493
34	0xbe09f804	-0.13473517
35	0x3da2c601	0.079479225
36	0x3d583ee4	0.052794352
37	0x3d9053cc	0.07047233
38	0xbe41fd25	-0.18944223
39	0xbc887b0b	-0.016660234
40	0xbddb3565	-0.107035436
41	0xbe90961d	-0.28239527
42	0xbc11ca8a	-0.008898387
43	0x3d6c6d59	0.05772147
44	0x3d90b23c	0.070652455
45	0x3d3229a7	0.043496754
46	0x3dd2a3b7	0.102851324
47	0xbdb13e01	-0.086544044
48	0xbc8b181f	-0.016979275
49	0x3e02f301	0.12788011
50	0xbcac19a4	-0.02100832
51	0x3dab44de	0.08362745
52	0xbc0f6bef	-0.008753761
53	0xbd5ca2d5	-0.053866226
54	0xbee089e7	-0.4385521
55	0xbd2ffe57	-0.042967167
56	0xbe0158f5	-0.1263159
57	0x3e000e05	0.12505348
58	0xbe7379aa	-0.2377688
59	0xbc9c8c8c	-0.019109987
60	0xbc7d9ad8	-0.015478812
61	0xbca07bb4	-0.019590236
62	0xbebb9889	-0.36639813
63	0xbe448d52	-0.19194534
64	0x3dd85e36	0.10564844
65	0xbc337181	-0.010952354
66	0xbcd8112d	-0.026375378
67	0xbdd8b5c2	-0.105815426
68	0x3d447059	0.047958706
69	0x3d21e932	0.039529033
70	0xbe020011	-0.12695338
71	0xbdfa6db9	-0.12227959
72	0x3e02052d	0.12697287
73	0x3d93a893	0.07209887
74	0xbd073328	-0.03300777
75	0xbe02a04c	-0.12756461
76	0x3e383d54	0.17992145
77	0x3cc4a30c	0.024003528
78	0x3d08dc93	0.03341348
79	0x3d7ad89a	0.061241724
80	0x3e0adb20	0.13560152
81	0xbd72c211	-0.059267107
82	0x3c16600d	0.009178174
83	0xbe4d96c0	-0.20077038
84	0xbe013da7	-0.12621175
85	0x3d2aef59	0.041732166
86	0x3d20465b	0.039129596
87	0xbceed8e0	-0.029156148
88	0x3e4cf8e2	0.20016816
89	0x3c18c560	0.009324402
90	0xbe0b7f27	-0.13622724
91	0xbd8161b8	-0.063174665
92	0x3d9ea18d	0.07745657
93	0xbe4da916	-0.20084032
94	0x3d986d6a	0.07442744
95	0x3c174819	0.009233498
96	0x3e0251e8	0.12726557
97	0x3e0859f3	0.13315563
98	0x3e3c8229	0.18409027
99	0xbe578f66	-0.21050796
100	0xbdf7ff2a	-0.121092156
101	0xbdba5555	-0.09098307
102	0x3e302fc5	0.17205723
103	0x3ca702c9	0.02038707
104	0xbdc1ae3a	-0.09457059
105	0x3e40e155	0.18835957
106	0x3d8284de	0.06372999
107	0xbde0fefb	-0.10986134
108	0x3ce7dd07	0.028303636
109	0x3de48c7a	0.11159606
110	0x3e06d5f1	0.1316755
111	0xbd31a5b4	-0.043370917
112	0xbcb05261	-0.021523656
113	0xbdb3751c	-0.08762571
114	0x3daacb21	0.08339525
115	0x3ce35100	0.027748585
116	0xbe125f3e	-0.14294145
117	0x3d717245	0.058946867
118	0xbe27bfc7	-0.16381751
119	0x3e0e7465	0.13911588
120	0xbd5af7ae	-0.053458862
121	0xbe1af566	-0.15132675
122	0x3dffcc17	0.12490099
123	0x3c790ecd	0.015201283
124	0xbe09c74e	-0.13454935
125	0x3e3823dd	0.17982431
126	0x3da48d2d	0.0803474
127	0x3e3f9491	0.18709017
128	0xbe273c5b	-0.16331618
129	0xbd06fcb4	-0.03295584
130	0x3d8946c0	0.067029476
131	0xbddb323e	-0.10702942
132	0xbe4ad545	-0.19807918
133	0xbdd24ed0	-0.102689385
134	0x3e136101	0.14392473
135	0x3e15a03a	0.14611903
136	0x3d5a0506	0.053227447
137	0xbe038a64	-0.1284576
138	0xbcdc6133	-0.026901817
139	0xbe0bed78	-0.13664806
140	0x3d4387ef	0.04773706
141	0xbcd19f5b	-0.025588682
142	0x3dc09c76	0.094048426
143	0xbd26c6d9	-0.04071698
144	0xbe585c11	-0.2112887
145	0x3e873387	0.264065
146	0xbdba5ffb	-0.09100338
147	0xbc9d0a3b	-0.019169917
148	0x3cabcf1d	0.020972783
149	0x3d593300	0.053027153
150	0x3c58d3f8	0.013234131
151	0x3dbef9d3	0.09324994
152	0xbd3f5144	-0.04670836
153	0xbd7c06dc	-0.06152998
154	0x3c97a66b	0.018511971
155	0x3ddb7119	0.10714931
156	0xbd80cc31	-0.062889464
157	0xbe019cae	-0.12657425
158	0xbcf05b7d	-0.0293405
159	0xbd660fe3	-0.056167495
160	0xbe5139a1	-0.2043214
161	0x3dd6ad7c	0.10482308
162	0xbdbaba76	-0.09117596
163	0x3e22c878	0.15896785
164	0x3c92a869	0.01790257
165	0xbcb60d86	-0.022223245
166	0x3e0c5e53	0.13707857
167	0xbde87e47	-0.113522105
168	0xbdb73be3	-0.08946969
169	0x3df7abf3	0.120933436
170	0xbddb0fe9	-0.10696394
171	0x3bdac2fb	0.0066760755
172	0xbe426c0e	-0.18986532
173	0xbd74c5e7	-0.059759047
174	0xbd77c0ba	-0.060486533
175	0xbce3fbb0	-0.027829975
176	0xbb8e580c	-0.004343992
177	0x3e071746	0.13192472
178	0xbdf90ee8	-0.12161046
179	0x39f06384	0.00045850512
180	0xbe295321	-0.16535617
181	0xbddb626f	-0.10712134
182	0xbe85511d	-0.26038447
183	0xbd7442c8	-0.059634
184	0x3c876215	0.016526261
185	0xbcf1ac2b	-0.029501041
186	0x3d2c3641	0.042043928
187	0x3c2457f0	0.010030732
188	0x3db036a6	0.08604173
189	0x3d91d307	0.071203284
190	0x3d1c7594	0.03819807
191	0x3e15c255	0.14624913
192	0x3dde222a	0.1084636
193	0xbdb80031	-0.089844115
194	0xbd46841d	-0.048465837
195	0x3d97e5e9	0.07416899
196	0x3cde9b07	0.027173532
197	0x3cc44ede	0.023963388
198	0xbe8f428e	-0.27980465
199	0xbd418962	-0.04725016
200	0x3dfa5139	0.12222523
201	0xbc7de881	-0.015497328
202	0x3dc8ef8e	0.098113164
203	0x3dfb31ec	0.12265381
204	0x3bc964b6	0.006146039
205	0x3c0f1e4e	0.008735253
206	0x3d512de8	0.05106917
207	0x3c341c9f	0.010993152
208	0x3c33b44c	0.010968279
209	0x3cbf45cb	0.02334871
210	0x3c97c0c3	0.018524533
211	0x3da5b7e8	0.08091718
212	0xbe19625d	-0.14978929
213	0xbe6e7fb6	-0.23290905
214	0xbd971b0b	-0.07378205
215	0x3d5ee438	0.054416865
216	0xbd2d8985	-0.042367477
217	0xbe091cfa	-0.1338996
218	0x3bcb2ab6	0.00620016
219	0x3dd37ea4	0.10326889
220	0xbc9fadb5	-0.01949201
221	0xbd81971b	-0.06327649
222	0xbdd8cf1d	-0.10586379
223	0xbda14e29	-0.07876236
224	0xbe053e0b	-0.13011949
225	0xbd3577a7	-0.044303562
226	0xbe1a71af	-0.1508243
227	0xbe1ade97	-0.15123974
228	0x3da5f1be	0.08102749
229	0x3e8db56c	0.27677476
230	0x3c6afc06	0.014342314
231	0xbe07219a	-0.13196412
232	0x3db8fe86	0.090329215
233	0xbce0abcb	-0.027425667
234	0x3df02b58	0.11727017
235	0x3e32e439	0.17469873
236	0x3ea51003	0.32238778
237	0xbd22f1d1	-0.039781395
238	0x3ccd88dd	0.025089676
239	0x3d96c3a8	0.07361537
240	0xbaf48cbe	-0.0018657667
241	0x3d329d10	0.043606818
242	0xbec9c61d	-0.3940896
243	0xbc332419	-0.010933899
244	0x3d910f05	0.07082943
245	0xbe90894e	-0.28229755
246	0xbe4306ab	-0.19045512
247	0xbdfd5bdf	-0.12371039
248	0xbe024783	-0.12722592
249	0x3e03c0fa	0.12866583
250	0x3d86abd7	0.065757446
251	0xbd5e258f	-0.054235037
252	0x3c114eb7	0.008868865
253	0xbe43f55e	-0.19136569
254	0x3d0ece54	0.03486474
255	0x3bf667c8	0.007519696

conv_block2.conv.bias f4 [16]
0	0x3b8128df	0.00394164
1	0x3a9c37f4	0.0011918531
2	0xbc4596d5	-0.012059887
3	0x3bf12f5f	0.0073603834
4	0xbaf8bc6a	-0.001897705
5	0xbba6da3e	-0.0050919345
6	0x3a72c07e	0.0009260251
7	0x3b437232	0.0029822704
8	0xb9dcce25	-0.0004211526
9	0xbb969a9b	-0.004596067
10	0xb983b377	-0.0002511998
11	0xbb81918e	-0.003954119
12	0xbc10ac2d	-0.008830112
13	0xbba5780c	-0.005049711
14	0x3bb79eb5	0.005603636
15	0xbbe616b3	-0.007021749

conv_block2.bn.weight f4 [16]
0	0x3f435e2d	0.76315576
1	0x3f427730	0.75963116
2	0x3f3768e7	0.71644443
3	0x3f4b541c	0.79425216
4	0x3f4b8def	0.7951345
5	0x3f384378	0.7197795
6	0x3f411cd1	0.75434595
7	0x3f41694c	0.75551295
8	0x3f39421c	0.723665
9	0x3f3121a5	0.6919196
10	0x3f2b79aa	0.6698252
11	0x3f2a3236	0.66482866
12	0x3f2d50be	0.6770133
13	0x3f4b5134	0.7942078
14	0x3f3b5410	0.73175144
15	0x3f3d50b7	0.73951286

conv_block2.bn.bias f4 [16]
0	0xbcde487d	-0.027134174
1	0x3d17ccc5	0.037060518
2	0xbe54ef83	-0.20794491
3	0xbccdc83b	-0.025119891
4	0xbd22761a	-0.03966341
5	0xbd3bbcc9	-0.045834336
6	0xbde75422	-0.11295344
7	0xbcb79ff3	-0.022415137
8	0xbcf025b8	-0.02931486
9	0xbce801dc	-0.0283212
10	0x3cee969e	0.029124554
11	0xbdc0e715	-0.094190754
12	0xbdd80916	-0.10548608
13	0xbce25ea8	-0.027633026
14	0xbdbfe046	-0.09368949
15	0xbd8c9cf6	-0.068658754

conv_block2.bn.running_mean f4 [16]
0	0x3d9eb6fa	0.07749744
1	0xbee3de5e	-0.4450559
2	0x3e0c0a0f	0.13675712
3	0xbd464a15	-0.048410494
4	0xbda7dc1c	-0.081962794
5	0xbd23b918	-0.03997144
6	0xbdf52600	-0.119701385
7	0xbd9406a9	-0.07227833
8	0x3d1f7cfb	0.03893755
9	0xbddc876d	-0.10768018
10	0xbcd51a0a	-0.026013393
11	0x3d328576	0.04358431
12	0x3e10be50	0.14135098
13	0xbe2bd857	-0.16781746
14	0xbe3a9404	-0.18220526
15	0x3d612897	0.05497035

conv_block2.bn.running_var f4 [16]
0	0x3d7844a9	0.060612354
1	0x3e12953d	0.14314742
2	0x3df752ab	0.120763145
3	0x3daa30a8	0.08310062
4	0x3dab861f	0.08375191
5	0x3db9ad8d	0.09066305
6	0x3e1c19f0	0.1524427
7	0x3e3e8806	0.18606576
8	0x3de962c5	0.11395792
9	0x3ea6605c	0.3249539
10	0x3dbedb1e	0.09319137
11	0x3dc130ea	0.09433158
12	0x3d9fcb25	0.078024186
13	0x3def5dc7	0.116878085
14	0x3e1b5d2f	0.15172265
15	0x3e39c08a	0.18139854

res_block1.conv.weight f4 [16, 16, 3, 3]
0	0x3cc27571	0.023737641
1	0x3cd9ea59	0.026601003
2	0xbcda8e1c	-0.026679091
3	0xbe0fbe4b	-0.14037435
4	0x3e4b3219	0.1984333
5	0xbda987b3	-0.08277836
6	0xbcdc4f92	-0.02689341
7	0xbd1b1624	-0.03786291
8	0x3d788eab	0.060682934
9	0xbd595d8a	-0.05306772
10	0x3db62968	0.08894616
11	0x3d73bd77	0.05950686
12	0x3d3551b3	0.044267368
13	0x3df1f79c	0.11814806
14	0xbd816967	-0.06318932
15	0xbd94cdcc	-0.07265815
16	0x3e15cb49	0.14628328
17	0x3da2fc64	0.07958296
18	0x3dd26039	0.10272259
19	0xbe57b397	-0.21064602
20	0xbd8d6f03	-0.069059394
21	0x3cc8ffc4	0.024536021
22	0x3de170ef	0.110078685
23	0xbe1ebe40	-0.15502262
24	0xbd2edc03	-0.04269029
25	0xbcd42520	-0.025896609
26	0xbd835f1d	-0.06414626
27	0xbe27ca9d	-0.16385885
28	0xbc2568f8	-0.010095827
29	0xbe051258	-0.12995279
30	0x3e1346a4	0.14382416
31	0x3e1b7bfd	0.15184017
32	0xbe812f26	-0.25231284
33	0xbe18b063	-0.14911036
34	0xbe5d48dc	-0.21609825
35	0xbc9d4a56	-0.019200485
36	0xbd14cb4b	-0.036326688
37	0x3e2bc261	0.16773368
38	0x3dc38c6f	0.0954827
39	0xbc145559	-0.009053552
40	0xbcad6698	-0.021167085
41	0x3d3f844c	0.046757028
42	0x3e5e5f0a	0.21715942
43	0xbe0f5574	-0.13997442
44	0xbddf3b98	-0.109000385
45	0x3d6df0de	0.058091037
46	0xbe39cb53	-0.18143968
47	0xbd8f24fc	-0.06989476
48	0xbca40865	-0.020023534
49	0xbd19f618	-0.03758821
50	0xbe81fce6	-0.2538826
51	0x3d92300d	0.07138071
52	0x3e124b44	0.14286524
53	0x3dcf072e	0.10108791
54	0x3d8e5554	0.06949869
55	0xbda407c0	-0.08009291
56	0xbe285541	-0.16438772
57	0xbd903514	-0.07041374
58	0x3cb2c239	0.021821128
59	0x3dbdc2c1	0.09265662
60	0xbd13991d	-0.036034692
61	0xbdf6d2bb	-0.120519124
62	0x3d79ae32	0.06095714
63	0x3e718068	0.2358414
64	0x3cde3739	0.027125942
65	0xbdd5f566	-0.10447197
66	0xbc8548a6	-0.016269993
67	0xbd83e676	-0.06440441
68	0x3d01ea5c	0.031717643
69	0x3d5a2eae	0.053267173
70	0xbd194a61	-0.03742445
71	0xbb0831d3	-0.002078165
72	0xbd865583	-0.06559279
73	0xbc99f983	-0.018795734
74	0x3d23e9f7	0.04001805
75	0xbc8cdf38	-0.017196283
76	0xbb11c509	-0.0022242686
77	0xbe6f4d88	-0.2336942
78	0xbe440929	-0.1914412
79	0x3b888660	0.0041664094
80	0x3cde203c	0.02711498
81	0xbdbcf64f	-0.09226667
82	0x3de62fa7	0.11239558
83	0xbdd26fa8	-0.10275203
84	0x3e74a13a	0.23889628
85	0xbc88abf6	-0.01668356
86	0xbe27aa91	-0.1637366
87	0xbe0225c6	-0.12709722
88	0xbb341ab1	-0.002748173
89	0x3da0a654	0.078442246
90	0x3c81b135	0.01583157
91	0x3e5c1d4e	0.21495554
92	0x3b084005	0.0020790112
93	0xbd425f8b	-0.047454398
94	0xbd8a5f01	-0.06756402
95	0x3c3b6369	0.011437275
96	0x3d0329be	0.03202223
97	0x3d1dc5a4	0.038518563
98	0xbe10e249	-0.14148821
99	0xbe330bfd	-0.17485042
100	0xbdb55116	-0.088533565
101	0xbe0e6113	-0.13904218
102	0xbdec1714	-0.11527839
103	0x3d4c6ca2	0.049908288
104	0x3e53e59d	0.2069306
105	0xbd4a11ad	-0.049333263
106	0x3d7f8793	0.062385153
107	0xbd135b05	-0.035975475
108	0x3e2d04d1	0.16896369
109	0xbd34e670	-0.044165075
110	0x3e539a6a	0.20664373
111	0xbe19ff6f	-0.15038846
112	0x3dc09c07	0.0940476
113	0xbe632803	-0.22183232
114	0x3d9803a2	0.07422568
115	0xbd895d13	-0.067072056
116	0x3e5bc877	0.2146319
117	0x3d964e34	0.07339135
118	0xbb4375c2	-0.0029824828
119	0x3c95d2e3	0.018289035
120	0xb942e860	-0.00018587848
121	0x3dfc49b0	0.12318742
122	0x3d949598	0.07255095
123	0xbd0f9fa8	-0.03506437
124	0xbde00f0e	-0.109403715
125	0x3c62da76	0.01384603
126	0xbcc7b506	-0.02437831
127	0x3c90c9a1	0.01767427
128	0x3e6071b9	0.21918382
129	0xbccb2799	-0.024799155
130	0xbcb5dfb4	-0.022201397
131	0xbde374d7	-0.1110627
132	0xbcef369c	-0.029200844
133	0x3e740b23	0.23832373
134	0x3dec1a25	0.11528424
135	0x3dad527c	0.08462998
136	0xbe05c840	-0.1306467
137	0x3dd1f97d	0.10252664
138	0x3dfa3313	0.12216773
139	0xbd9d2597	-0.07673185
140	0xbdee1017	-0.11624163
141	0xbe02286c	-0.12710732
142	0x3e4175d4	0.18892604
143	0x3e14181e	0.14462325
144	0xbe907bb8	-0.2821939
145	0xbe8cb432	-0.27481228
146	0xbdb7e85d	-0.08979867
147	0xbd7e780a	-0.062126197
148	0xbe0003d7	-0.12501465
149	0xbc2d825c	-0.010590162
150	0xbd57943e	-0.05263161
151	0xbe5aae8c	-0.21355647
152	0xbe1d6297	-0.1536964
153	0x3bf50e3f	0.007478505
154	0xbdc1bd68	-0.094599545
155	0xbc52d124	-0.012867246
156	0xbe3d1f57	-0.18468986
157	0xbe0ce832	-0.1376045
158	0x3e840ede	0.25792593
159	0xbe7af380	-0.2450695
160	0xbe547ba3	-0.20750289
161	0x3d034e7e	0.032057278
162	0x3d4d0c09	0.050060306
163	0xbd045f7b	-0.03231762
164	0x3dd0cfbf	0.101958744
165	0xbd68154d	-0.05666094
166	0xbd649ac3	-0.055811655
167	0xbd4cb557	-0.049977627
168	0xbe92872f	-0.28618762
169	0x3c303730	0.010755345
170	0x3c601c99	0.013678693
171	0x3e6ba4bf	0.23012064
172	0xbdbb1ea9	-0.09136707
173	0xbeabd1b3	-0.33558425
174	0xbd31633e	-0.043307535
175	0x3c8d6244	0.01725877
176	0x3e1b6297	0.15174328
177	0x3e2d9fdd	0.16955514
178	0xbe21460d	-0.15749379
179	0xbcb97551	-0.022638949
180	0xbd94ef4f	-0.07272207
181	0x3d8adb5c	0.06780121
182	0x3a4f9b39	0.00079195533
183	0xbe21f036	-0.1581429
184	0x3d9e24d8	0.07721871
185	0x3d603d36	0.054745875
186	0xbd5859c2	-0.052819975
187	0xbd8c3955	-0.06846873
188	0xbce7ced7	-0.028296871
189	0xbeb7200b	-0.35766634
190	0x3b313a79	0.002704291
191	0xbd6915e4	-0.056905642
192	0xbdb996cd	-0.09061966
193	0xbe2a1f90	-0.16613603
194	0xbda4c88a	-0.08046062
195	0x3dff09fe	0.12453078
196	0xbd235164	-0.039872542
197	0x3db5ebce	0.08882867
198	0x3d48e53b	0.049046736
199	0xbc434f0e	-0.011920704
200	0xbd98c531	-0.07459486
201	0x3de9e0fb	0.11419865
202	0xbd98f00b	-0.074676596
203	0x3c530038	0.01287847
204	0xbce7239f	-0.028215228
205	0xbc993188	-0.018700376
206	0x3d55a1c6	0.052156232
207	0x3c1a14a8	0.009404339
208	0xbe1ac20d	-0.15113087
209	0xbe3cdd7d	-0.18443866
210	0x3dc6ac22	0.097008005
211	0x3d9538e8	0.07286245
212	0xbd771cbe	-0.060330145
213	0xbd912fef	-0.07089221
214	0x3d893daf	0.06701218
215	0x3cad50ed	0.021156752
216	0x3ccf34c8	0.025293723
217	0xbe046403	-0.12928776
218	0x3c4c69c4	0.012476388
219	0x3a95b1df	0.0011420808
220	0xbc84b523	-0.016199654
221	0xbd521d50	-0.051297486
222	0x3df08ab0	0.117452025
223	0x3d70e28a	0.058809794
224	0xbcf59130	-0.029976457
225	0x3e016c3e	0.12638947
226	0xbe098c5a	-0.13432446
227	0xbdec9c85	-0.11553291
228	0xbdbbf000	-0.09176636
229	0x3ca6c9a7	0.020359827
230	0xbd14515a	-0.036210395
231	0x3ad260e6	0.0016050607
232	0x3cc5087a	0.024051894
233	0xbd5d0515	-0.053959925
234	0x3e908a09	0.28230312
235	0xbd902502	-0.07038309
236	0x3d99b99f	0.075061075
237	0x3e606b8e	0.21916029
238	0x3cddfce8	0.027098134
239	0xbdf44fdf	-0.11929297
240	0x3d3ee334	0.046603397
241	0x3dcf7b22	0.101309076
242	0x3e39b48e	0.18135282
243	0x3c5a8acd	0.013338757
244	0x3c65fadb	0.014036859
245	0xbbc0322b	-0.0058653555
246	0xbe049252	-0.12946442
247	0xbdc10052	-0.09423889
248	0xbd537fe0	-0.051635623
249	0x3dafe3a9	0.085883446
250	0xbdf00337	-0.11719363
251	0x3dd6589c	0.1046612
252	0x3de42e3f	0.11141633
253	0x3d2a453f	0.041569944
254	0x3d145733	0.036215972
255	0xbe278e68	-0.16362917

res_block1.conv.bias f4 [16]
0	0x3ada2df5	0.0016645776
1	0x3b147ab9	0.0022656156
2	0x3b01a566	0.0019782423
3	0x3a981b98	0.0011604903
4	0x3893c9c1	7.047086e-05
5	0x3ade6d72	0.0016969873
6	0x3a55e2af	0.00081590837
7	0xb82adb71	-4.073553e-05
8	0xbb3eb31d	-0.002909846
9	0x3a1ca016	0.00059747824
10	0x3a9db968	0.0012033405
11	0xbaa114da	-0.001228954
12	0x39995807	0.0002924802
13	0xbb2662d1	-0.002538849
14	0xbbf765e3	-0.0075499876
15	0xba6af2c5	-0.0008962567

res_block1.bn.weight f4 [16]
0	0x3f4f45f2	0.80966103
1	0x3f3a5f64	0.72801805
2	0x3f4d557b	0.8020856
3	0x3f4b980d	0.79528886
4	0x3f541938	0.8285098
5	0x3f4ab136	0.7917665
6	0x3f4cdffc	0.80029273
7	0x3f544a76	0.8292612
8	0x3f4d0774	0.800895
9	0x3f68c1e3	0.9092085
10	0x3f616bd8	0.8805518
11	0x3f3df7e5	0.7420638
12	0x3f6450aa	0.89185584
13	0x3f4b4736	0.79405534
14	0x3f3a4734	0.727649
15	0x3f491abe	0.7855643

res_block1.bn.bias f4 [16]
0	0xbd274a70	-0.040842474
1	0xbc3f2db1	-0.0116686085
2	0xbdb79307	-0.0896359
3	0xbd4c7e03	-0.04992486
4	0xbd5a413b	-0.053284865
5	0xbd81c275	-0.06335918
6	0xbde1acad	-0.110192634
7	0xbd4788fd	-0.048714627
8	0xbc8510fd	-0.016243452
9	0xbe4978bb	-0.19674961
10	0xbdf196b9	-0.11796326
11	0xbde098ee	-0.10966669
12	0xbcf3ba03	-0.029751783
13	0xbbfd3169	-0.0077268374
14	0xbdb2fc01	-0.08739472
15	0xbc5f508a	-0.013630042

res_block1.bn.running_mean f4 [16]
0	0xbd4a54b8	-0.0493972
1	0xbea314a8	-0.31851697
2	0x3e63527a	0.22199431
3	0xbd03c864	-0.03217353
4	0x3bd2bb52	0.0064310217
5	0x3ea3265e	0.3186521
6	0x3e00dd6b	0.12584464
7	0xbe971927	-0.29511377
8	0xbdea72da	-0.114476874
9	0xbc8fa1a9	-0.01753314
10	0xbeb81eac	-0.359609
11	0x3c7d7ba6	0.015471375
12	0xbf229ebe	-0.6352347
13	0xbef4ce35	-0.47813573
14	0x3e957869	0.29193428
15	0xbe214a3e	-0.15750977

res_block1.bn.running_var f4 [16]
0	0x3e65bd84	0.22435576
1	0x3e72d7d8	0.2371515
2	0x3e3020bd	0.17199989
3	0x3e8507a6	0.25982398
4	0x3e8bda53	0.27315006
5	0x3e6f0262	0.23340753
6	0x3e95d0f4	0.2926098
7	0x3e94ec8b	0.29086718
8	0x3ed2a756	0.41143292
9	0x3e7e4843	0.24832253
10	0x3e7d4dbf	0.24736689
11	0x3e8196fa	0.25310498
12	0x3e9b473b	0.30327782
13	0x3e76f603	0.24117284
14	0x3e2d43a2	0.16920331
15	0x3eb6d0e9	0.3570626

res_block2.conv.weight f4 [16, 16, 3, 3]
0	0xbdd1a8b4	-0.10237256
1	0x3cd79659	0.026316809
2	0xbdf3c992	-0.11903681
3	0x3d6e99ef	0.05825227
4	0xbe26b9d8	-0.16281831
5	0x3e39973b	0.18124096
6	0xbe47e670	-0.19521499
7	0x3e138e44	0.14409739
8	0x3def16d4	0.11674276
9	0xbcf3a6de	-0.029742654
10	0x3dce1452	0.100624695
11	0x3cdd9ec5	0.027053246
12	0x3e2499a7	0.16074239
13	0x3d63bcec	0.05560009
14	0xbdb05e8c	-0.086117834
15	0x3daa460e	0.08314143
16	0xbde489d9	-0.11159105
17	0xbe18a7ad	-0.14907713
18	0x3e19bca8	0.15013373
19	0xbc17499c	-0.009233858
20	0x3e1d896a	0.1538445
21	0xbde6b170	-0.11264312
22	0xbda293b0	-0.079383254
23	0x3dcaf092	0.099091664
24	0xbcb3d287	-0.021950973
25	0x3c8aa483	0.016924148
26	0x3c641f49	0.013923475
27	0x3e4ce4c1	0.20009138
28	0xbd1e2a7f	-0.038614746
29	0xbe9a5d24	-0.30149186
30	0x3d11ad25	0.035565514
31	0xbe60cfbb	-0.21954243
32	0xbd765a4b	-0.060144704
33	0xbe01fda6	-0.12694415
34	0x3ddbde88	0.10735804
35	0xbd9b607c	-0.07586762
36	0x3dd8fc7b	0.10595032
37	0xbde6dfdf	-0.11273169
38	0xbc8077af	-0.01568207
39	0xbe2fb863	-0.17160182
40	0x3cc73ae3	0.024320072
41	0xbbefb29e	-0.007314994
42	0x3d600c21	0.054699067
43	0x3dcaa8ad	0.098954536
44	0x3db4d3c3	0.08829453
45	0xbddb730e	-0.10715304
46	0xbe0c3e18	-0.13695562
47	0xbdfe1435	-0.12406198
48	0x3e663faf	0.22485231
49	0xbc8f2519	-0.017473744
50	0xbdc7532c	-0.09732661
51	0x3bfb3e05	0.0076673054
52	0xbcca940e	-0.024728801
53	0xbd360889	-0.044441734
54	0xbd441cb6	-0.047878943
55	0xbd89a1d3	-0.06720319
56	0x3dae7611	0.08518613
57	0xbe889f47	-0.2668402
58	0x3e0b202b	0.1358649
59	0xbe1db42d	-0.15400763
60	0xbe174731	-0.14773251
61	0xbccce211	-0.02501014
62	0xbcc9ce21	-0.024634423
63	0x3c18ee03	0.00933409
64	0x3e1636d6	0.14669356
65	0xbdb3272e	-0.08747707
66	0xbb40f9f3	-0.0029445856
67	0x3c8c0985	0.017094383
68	0x3cafe2c6	0.021470439
69	0x3be0e764	0.0068635214
70	0xbe826e74	-0.25474894
71	0xbd3c95c3	-0.04604126
72	0x3d9b859a	0.07593842
73	0xbcf70365	-0.030152986
74	0x3cf84cc9	0.030310052
75	0xbe71c5fe	-0.23610684
76	0x3d0458e8	0.03231135
77	0xbd4bd4b7	-0.049763408
78	0xbda699f0	-0.0813483
79	0x3df6fc6f	0.12059867
80	0x3e47f1f3	0.1952589
81	0x3c53bbdd	0.012923208
82	0x3e4c9e27	0.19982205
83	0x3c8aa0b8	0.01692234
84	0xbe3f589d	-0.18686147
85	0x3e22a017	0.15881382
86	0xbd73d826	-0.059532307
87	0x3d85828d	0.06519041
88	0x3d3bc414	0.04584129
89	0x3d3ddcf1	0.046353284
90	0xbd81bb9a	-0.0633461
91	0xbe203a48	-0.15647233
92	0xbda77fec	-0.08178696
93	0xbd712c2a	-0.05888001
94	0xbc48a656	-0.012246689
95	0xbb6cae0c	-0.0036114482
96	0xbcf66a35	-0.03007994
97	0xbdb15f64	-0.086607724
98	0x3c72179a	0.014776135
99	0x3daac99b	0.083392344
100	0x3dc9ac88	0.09847361
101	0xbbc82286	-0.006107631
102	0x3cd0b946	0.02547897
103	0x3d22da84	0.039759174
104	0xbe30ad32	-0.17253569
105	0xbd84223b	-0.064518414
106	0xbdca977f	-0.09892177
107	0x3d54d319	0.05195913
108	0xbcfae0e9	-0.030624824
109	0xbe68a520	-0.2271924
110	0xbd83272b	-0.06403955
111	0x3d5ccb2d	0.0539047
112	0x3de02cbd	0.10946033
113	0x3cbd64ee	0.023119416
114	0xbe8821d1	-0.265883
115	0x3c2c2ced	0.010508758
116	0x3c7b3fee	0.015335066
117	0x3e10779c	0.14108127
118	0x3dd578b3	0.10423412
119	0x3eb6de15	0.3571631
120	0x3dd119fb	0.102100335
121	0x3e0f8236	0.14014515
122	0x3e0299ae	0.12753937
123	0xbe2ee6ff	-0.17080306
124	0xbe231e8c	-0.15929621
125	0x3dc71992	0.09721674
126	0xbe0e31a1	-0.1388612
127	0x3b521aee	0.0032059508
128	0xbde99eb3	-0.114072226
129	0x3d0d4607	0.03449061
130	0x3c9755c6	0.018473517
131	0x38e834ba	0.00011072443
132	0x3c9b60c2	0.018967036
133	0xbd91a69f	-0.071118586
134	0xbb9775a0	-0.0046221763
135	0xbc4c71f8	-0.012478344
136	0xbbc16523	-0.005901949
137	0x3a0ecc0c	0.00054472755
138	0xbcd9dfa9	-0.026595907
139	0xbda7cb33	-0.08193054
140	0xbe1c1fbf	-0.15246485
141	0xbdf91af1	-0.12163342
142	0x3db3e6c8	0.087842524
143	0x3d0a13b9	0.033710215
144	0x3e49da9e	0.19712302
145	0x3dc459b6	0.095874235
146	0x3df9749b	0.12180444
147	0x3e306316	0.17225298
148	0xbd39b706	-0.04534056
149	0x3bc576e9	0.006026138
150	0xbdb62e95	-0.088956036
151	0xbe4ddeab	-0.20104472
152	0x3e10d2f6	0.14142975
153	0xbd7a4f92	-0.06111104
154	0x3e147845	0.14499004
155	0x3e07337a	0.1320323
156	0xbdc11685	-0.094281234
157	0xbd82f49d	-0.063943125
158	0xbe0f8e78	-0.14019191
159	0x3dd2e1b1	0.102969535
160	0x3d63c17f	0.055604454
161	0x3d82a21b	0.063785754
162	0x3d1ad662	0.037802108
163	0xbc1adff0	-0.009452805
164	0xbe58d4a0	-0.2117486
165	0xbd4d35c6	-0.05010011
166	0xbd71d5c7	-0.059041765
167	0xbe05f4e0	-0.13081694
168	0xbe2154df	-0.15755032
169	0xbd9d23ec	-0.07672867
170	0xbd643630	-0.05571574
171	0xbc84c329	-0.01620634
172	0x3da4866b	0.08033451
173	0x3cfc1727	0.030772759
174	0x3dd4123b	0.1035504
175	0xbdadadf1	-0.08480442
176	0x3d411332	0.047137447
177	0xbd4b1b1b	-0.049586397
178	0x3c9adb16	0.018903296
179	0xbdd1af24	-0.102384835
180	0xbdaad417	-0.08341234
181	0xbd12d9d1	-0.035852257
182	0xbd36c724	-0.04462351
183	0xbd81bdd6	-0.063350365
184	0xbc860e46	-0.016364228
185	0xbd638c53	-0.055553745
186	0x3d029a15	0.031885225
187	0xbe2700f5	-0.16308959
188	0x3dee5fc2	0.11639358
189	0xbca1152f	-0.019663421
190	0xbe8e068d	-0.27739373
191	0x3d92d015	0.07168595
192	0x3d1d1bf9	0.038356755
193	0x3d98987c	0.07450959
194	0x3b9b101d	0.0047321455
195	0x3c2031ea	0.009777525
196	0xbd137d03	-0.036007892
197	0xbcb4e8a4	-0.022083588
198	0xbe9006f2	-0.281303
199	0xbe0d7b47	-0.13816558
200	0xbd499505	-0.04921438
201	0xbe0a4602	-0.13503268
202	0xbdb190c8	-0.08670193
203	0x3c8c06fb	0.017093172
204	0x3dae8fca	0.08523519
205	0xbe2f79c7	-0.17136298
206	0x3e10e95e	0.14151523
207	0x3eb3a565	0.35087124
208	0xbce9a375	-0.028520325
209	0xbe2fe367	-0.17176591
210	0x3b1bbde2	0.0023764302
211	0x3d7348c9	0.059395585
212	0x3c0f7207	0.008755214
213	0xbca4bb61	-0.02010888
214	0xbe1dddaf	-0.15416597
215	0x3d1d4030	0.038391292
216	0xbd950832	-0.07276954
217	0x3d90dbad	0.0707315
218	0x3e1798b4	0.14804345
219	0xbd52f40b	-0.05150227
220	0xbc0e040a	-0.008667955
221	0x3e31e7ff	0.17373656
222	0x3dbba031	0.091614135
223	0xbdd2dbb7	-0.102958135
224	0x3d1e3958	0.038628906
225	0x3daa0280	0.08301258
226	0xbca80128	-0.020508364
227	0x3e30d5c6	0.17269048
228	0xbe919c4d	-0.2843956
229	0x3e0d0273	0.13770466
230	0xbe3f10a2	-0.18658689
231	0x3cc16aae	0.02361044
232	0xbe3b8b78	-0.18314922
233	0xbd66ac81	-0.056316856
234	0xbd3fc1fb	-0.046815854
235	0x3d27eebe	0.040999167
236	0xbd03b566	-0.032155417
237	0x3e562d83	0.20915799
238	0xbc0c6abc	-0.008570369
239	0xbcacba19	-0.021084832
240	0xbd12ca02	-0.03583718
241	0xbcda29ef	-0.026631324
242	0x3e95f21d	0.2928628
243	0x3d154a91	0.036448065
244	0xbe116675	-0.1419924
245	0x3dacec73	0.084435366
246	0xbe3af19e	-0.18256232
247	0xbc076612	-0.008264082
248	0x3dad6604	0.084667236
249	0x3daeb49f	0.085305445
250	0xbd5449ca	-0.051828183
251	0xbc31d9fb	-0.010855193
252	0xbdf6326c	-0.12021336
253	0x3e659ec7	0.2242385
254	0xbe24bece	-0.16088411
255	0x3d21f96f	0.03954452

res_block2.conv.bias f4 [16]
0	0xbb16846f	-0.002296712
1	0x39cd2347	0.0003912693
2	0xba86c582	-0.0010282251
3	0xbb01aa93	-0.0019785508
4	0x3a0de4b2	0.00054128014
5	0xba1fe44d	-0.0006099388
6	0x3a7549eb	0.0009357023
7	0xbb06a000	-0.0020542145
8	0xbb3ff29b	-0.0029288891
9	0x3a9b017b	0.0011826003
10	0xba1c7659	-0.0005968563
11	0xbabfd5f6	-0.0014635909
12	0xbaa2d696	-0.0012423571
13	0x3bb88fd6	0.005632381
14	0xb96fa002	-0.00022852424
15	0xb8c4b849	-9.380334e-05

res_block2.bn.weight f4 [16]
0	0x3f5a4522	0.8526174
1	0x3f68e91c	0.90980697
2	0x3f748c48	0.9552655
3	0x3f653e33	0.89548033
4	0x3f5121e7	0.81692356
5	0x3f783e61	0.9697018
6	0x3f5d7d18	0.86519
7	0x3f5ab558	0.8543296
8	0x3f5fb7b4	0.87389684
9	0x3f66bb77	0.901298
10	0x3f5b8f0e	0.8576516
11	0x3f58a235	0.8462251
12	0x3f430dcc	0.7619293
13	0x3f673356	0.9031271
14	0x3f6a44f5	0.9151147
15	0x3f58e263	0.8472044

res_block2.bn.bias f4 [16]
0	0xbc31ef99	-0.010860347
1	0xbe0e0029	-0.13867249
2	0xbc96bbfe	-0.018400189
3	0xbcf625f3	-0.030047392
4	0xbc8157c9	-0.01578893
5	0xbe0c0bfd	-0.13676448
6	0xbe16d3a2	-0.14729169
7	0xbdac87e5	-0.08424357
8	0xbda101af	-0.07861649
9	0x3bbf3e7a	0.005836305
10	0xbd48b751	-0.04900295
11	0xbcee78c3	-0.029110318
12	0xbca8a999	-0.020588683
13	0x39451a0e	0.0001879709
14	0xbbe3571c	-0.0069378745
15	0xbd4fa126	-0.050690793

res_block2.bn.running_mean f4 [16]
0	0xbed1a050	-0.4094262
1	0xbf160c5a	-0.58612597
2	0xbf80f4a0	-1.0074654
3	0xbf78931c	-0.9709947
4	0xbed83532	-0.42228085
5	0x3c93ff53	0.018066084
6	0x3ed25980	0.41083908
7	0x3da49ae9	0.08037359
8	0xbf3c3db6	-0.73531663
9	0xbf852f6d	-1.0405098
10	0xbf20d4b9	-0.6282459
11	0xbf234ebd	-0.6379202
12	0xbd925837	-0.07145732
13	0xbf77d2bc	-0.9680593
14	0xbf63906e	-0.8889226
15	0xbf2b2128	-0.6684747

res_block2.bn.running_var f4 [16]
0	0x3ee6b162	0.45057207
1	0x3ee9f69d	0.45695964
2	0x3ea69a28	0.32539487
3	0x3f14522e	0.57937896
4	0x3f3e67df	0.74377245
5	0x3ee59027	0.44836542
6	0x3f2364eb	0.63825864
7	0x3eff339f	0.4984407
8	0x3f07e6c6	0.5308651
9	0x3f8c7809	1.0974132
10	0x3f094666	0.53623044
11	0x3f088e65	0.53342277
12	0x3f46f46e	0.7771672
13	0x3f07ac7f	0.52997583
14	0x3f3272a8	0.697062
15	0x3f0580ac	0.5214946

res_block3.conv.weight f4 [16, 16, 3, 3]
0	0x3d918939	0.07106251
1	0x3db0efc1	0.086394794
2	0xbcc5beb4	-0.024138786
3	0xbd654ed7	-0.05598339
4	0x3d8ae5f9	0.06782145
5	0x3db6e119	0.08929653
6	0x3cc8bfd6	0.024505537
7	0x3e034204	0.12818152
8	0xbbca896c	-0.0061809327
9	0xbb7c2823	-0.0038476072
10	0x3ca5b9ad	0.020230139
11	0x3cfb4ae7	0.030675365
12	0x3dd4b0bf	0.10385274
13	0x3e5942b5	0.21216853
14	0x3e03fc8f	0.12889312
15	0xbd603e95	-0.054747183
16	0xbdd33dee	-0.103145465
17	0xbe273cdc	-0.1633181
18	0xbdd228d1	-0.10261691
19	0x3d94a935	0.07258836
20	0x3dc3f25b	0.0956771
21	0xbdee5885	-0.116379775
22	0xbcf848e9	-0.030308204
23	0xbbd5897e	-0.0065166345
24	0xbcc5d28a	-0.024148244
25	0x3e709380	0.23493767
26	0x3cfdaf6f	0.030967442
27	0xbe2682c0	-0.16260815
28	0xbe39d1bf	-0.18146418
29	0x3e193b6a	0.14964071
30	0xbd6a8fd9	-0.05726609
31	0xbe3f9e98	-0.18712842
32	0x3dacbaac	0.08434042
33	0x3ca32373	0.019914364
34	0x3dbb9299	0.09158821
35	0xbd73cda3	-0.059522282
36	0x3db7267a	0.08942886
37	0xbde98e49	-0.11404092
38	0xbd81d169	-0.0633877
39	0x3e116879	0.1420001
40	0xbe3633b1	-0.17793156
41	0xbde7e887	-0.11323648
42	0x3d721569	0.05910245
43	0x3cb16488	0.021654382
44	0x3c8653d5	0.016397396
45	0xbe28601e	-0.16442916
46	0xbd04dbbc	-0.032436118
47	0xbcd48eb6	-0.025946956
48	0xbdea0bb5	-0.11428014
49	0x3d17dd4f	0.03707629
50	0x3dab8237	0.08374446
51	0xbec30b84	-0.38094723
52	0x3da414d0	0.08011782
53	0x3c1cda51	0.009573535
54	0x3d1096f8	0.035300225
55	0xbe28476a	-0.16433492
56	0x3d3e5949	0.046471868
57	0x3da9cb7a	0.08290763
58	0xbd746e82	-0.0596757
59	0xbde5519b	-0.11197206
60	0x3dbd6a25	0.09248761
61	0x3e846c7e	0.25864023
62	0xbc112147	-0.008858032
63	0xbcd8edf0	-0.026480645
64	0x3b5c6388	0.0033628661
65	0xbde3e081	-0.11126805
66	0xbd3fa4e4	-0.04678811
67	0xbdfd756b	-0.12375911
68	0xbcfd66e3	-0.03093285
69	0xbe4350c7	-0.19073783
70	0xbc4656a6	-0.01210562
71	0xbe766626	-0.24062404
72	0x3cc86f79	0.024467217
73	0x3da957bb	0.082686864
74	0x3e2838b5	0.16427882
75	0x3dd6ff76	0.10497944
76	0x3df9a21a	0.121891215
77	0xbe1acfd2	-0.1511834
78	0x3db22929	0.08699257
79	0xbd8a70ec	-0.067598194
80	0x3e133f6a	0.1437966
81	0xbc8a7581	-0.016901733
82	0xbd6b4d1a	-0.057446577
83	0xbdcadaeb	-0.099050365
84	0x3dd522e5	0.10407046
85	0x3dededf6	0.11617653
86	0x3dbc4ee5	0.091947354
87	0x3e09604b	0.13415639
88	0x3d8ba5d9	0.06818742
89	0x3d56d208	0.052446395
90	0xbe1d27b0	-0.15347171
91	0x3e903ef8	0.2817304
92	0xbdd3de91	-0.103451855
93	0x3df31adf	0.1187036
94	0x3e3f063e	0.18654725
95	0x3e066be1	0.1312709
96	0xbd1447e5	-0.036201376
97	0xbe046e7f	-0.12932776
98	0xbbf08ea4	-0.007341223
99	0xbae68f75	-0.0017590361
100	0x3c53e56a	0.012933115
101	0x3db4eaac	0.088338226
102	0x3e01cd0b	0.12675874
103	0xbdc5f34b	-0.09665545
104	0xbe00244a	-0.12513843
105	0xbd696930	-0.05698508
106	0x3e2d127e	0.16901585
107	0x3e0892fb	0.13337319
108	0xbc8112b0	-0.015755981
109	0x3c99ba72	0.018765662
110	0xbdbd4e81	-0.09243489
111	0x3dd9361b	0.10606023
112	0xbd5955e6	-0.053060435
113	0x3d37ba8b	0.044855636
114	0xbce5b344	-0.028039582
115	0x3e7d5fea	0.2474362
116	0x3db85ad0	0.09001696
117	0xbe821cf0	-0.25412703
118	0x3c5c6148	0.013450928
119	0xbd314454	-0.043278053
120	0x3d0a7b72	0.033809133
121	0xbe3d3be5	-0.18479879
122	0xbacb0a86	-0.0015490807
123	0x3b3dc000	0.0028953552
124	0xbc8a52a4	-0.01688511
125	0xbb8ce053	-0.0042992025
126	0x3dd02771	0.10163773
127	0x3e247de0	0.16063643
128	0xbdd05e9c	-0.10174295
129	0x3e4affaf	0.19824098
130	0xbe0b5772	-0.13607576
131	0xbcff2172	-0.031143878
132	0x3e305264	0.1721893
133	0x3de0480d	0.109512426
134	0xbd728b14	-0.059214666
135	0xbd9a9f9c	-0.07549974
136	0xbd7b72da	-0.061388828
137	0x3cec687f	0.028858421
138	0x3d3f5070	0.04670757
139	0xbe473316	-0.19453081
140	0x3cb9cbd8	0.022680208
141	0x3d811534	0.06302872
142	0x3c92e176	0.017929774
143	0x3dd3deef	0.103452556
144	0xbd71669d	-0.05893575
145	0x3d503a28	0.050836712
146	0xbda345e9	-0.07972319
147	0xbcec7faa	-0.028869469
148	0xbd144140	-0.03619504
149	0x3d8f3ae0	0.069936514
150	0x3d85ca22	0.065326944
151	0xbd87db47	-0.06633621
152	0xbe1f3338	-0.15546882
153	0x3c39b903	0.011335614
154	0xbd991f3a	-0.07476659
155	0xbdae2b35	-0.08504335
156	0x3e414fb5	0.18878062
157	0xbe42ad96	-0.1901153
158	0xbe24457a	-0.16042128
159	0x3d22362e	0.03960245
160	0x3e135396	0.14387354
161	0xbbb551ec	-0.0055334475
162	0xbc261b3e	-0.010138331
163	0xbd533ebb	-0.051573496
164	0xbdb752a9	-0.08951313
165	0x3dd5724a	0.104221895
166	0xbe15af2b	-0.14617603
167	0x3c276f13	0.010219353
168	0xbe36959e	-0.17830512
169	0x3d2be211	0.04196364
170	0xbcacdf96	-0.021102708
171	0xbe7da297	-0.24769054
172	0x3bd7b8e1	0.0065833186
173	0xbdd4fba0	-0.10399556
174	0xbde81928	-0.11332923
175	0x3db9169c	0.090375155
176	0x3cfa59b8	0.03056036
177	0xbe81aa13	-0.2532507
178	0x3d93ec15	0.072227634
179	0x3d944a1c	0.07240698
180	0x3de8770b	0.11350831
181	0x3e0bd0ee	0.13653919
182	0xbc8b9814	-0.01704029
183	0x3ad68580	0.001636669
184	0x3dbe3a94	0.09288517
185	0x3d71bfd1	0.05902082
186	0x3dfc1cdf	0.12310194
187	0xbccf9adc	-0.025342397
188	0x3c28a52e	0.010293288
189	0x3e0b67b2	0.13613775
190	0xbcb75f0f	-0.022384195
191	0x3e302dfc	0.17205042
192	0x3cbed6d6	0.023295801
193	0x3d1fe78c	0.03903918
194	0xbdf29e94	-0.118466526
195	0xbdad9245	-0.08475164
196	0xbd13d624	-0.036092892
197	0x3ceec7ac	0.029147945
198	0x3e7a9a12	0.24472836
199	0x3c1eabb4	0.009684492
200	0xbd9f5bf6	-0.07781212
201	0xbdb76e2b	-0.0895656
202	0x3d4d446c	0.05011408
203	0xbcebf343	-0.02880252
204	0x3e131c66	0.14366302
205	0x3d3e4b19	0.046458337
206	0xbcd67642	-0.026179437
207	0x3da64ad3	0.0811974
208	0xbcadcd26	-0.021215986
209	0xbd0e1ae3	-0.03469361
210	0x3e31b148	0.17352784
211	0x3e1520fa	0.14563361
212	0x3c51bfe2	0.012802096
213	0xbd32faf6	-0.043696366
214	0xbd560c0d	-0.052257586
215	0x3d28f36a	0.041247763
216	0x3de01b71	0.10942734
217	0xbd18d672	-0.037313886
218	0xbe9db4a8	-0.30801892
219	0x3d396fc3	0.0452726
220	0xbebb9469	-0.36636665
221	0xbdc353cd	-0.09537468
222	0x3e77732f	0.24165033
223	0x3e3d8926	0.18509349
224	0x3d2291c8	0.03968981
225	0x3e108ada	0.14115468
226	0xbd09335b	-0.033496242
227	0xbdbf3d16	-0.09337823
228	0x3d4f0f8a	0.05055193
229	0xbe9768a2	-0.29572016
230	0xbdbcb1ef	-0.09213626
231	0x3d84f927	0.064928345
232	0x3e54de1f	0.20787857
233	0xbe16ead6	-0.1473802
234	0xbd2ea15b	-0.04263435
235	0x3dc1a985	0.094561614
236	0x3caadef1	0.02085826
237	0xbd8dd581	-0.06925488
238	0x3d007a92	0.031366892
239	0x3dd538ea	0.10411246
240	0x3d3550bf	0.04426646
241	0x3dc87355	0.09787623
242	0x3e86d14d	0.2633156
243	0x3ce58f45	0.028022418
244	0x3e050f07	0.12994014
245	0xbb4bf259	-0.0031119792
246	0x3ddf80e6	0.10913257
247	0x3d7c30ad	0.06156986
248	0x3d31f630	0.043447673
249	0xbc8fc86b	-0.017551621
250	0xbd678098	-0.05651912
251	0xbe4b104c	-0.19830436
252	0x3cb2491d	0.021763379
253	0xbda15ae2	-0.07878663
254	0x3d217caa	0.03942553
255	0xbdd4becc	-0.10387954

res_block3.conv.bias f4 [16]
0	0xbaf2027d	-0.0018463876
1	0xba6c5b3e	-0.00090162817
2	0xba8ceef8	-0.001075237
3	0x3acd421b	0.001565996
4	0xbb6e39ff	-0.0036350486
5	0xb690a3d4	-4.3106065e-06
6	0xb969a77f	-0.00022283009
7	0xb9ce97d4	-0.00039404503
8	0x39f117f8	0.0004598496
9	0xb9f0e36f	-0.00045945818
10	0xba2cd035	-0.00065923046
11	0xba6f6ccb	-0.0009133338
12	0x3a20aa1b	0.00061288633
13	0x3ab9a65c	0.0014163959
14	0xb91296f3	-0.00013979878
15	0x3a319c5f	0.0006775315

res_block3.bn.weight f4 [16]
0	0x3f580cb2	0.8439437
1	0x3f57bf2e	0.8427609
2	0x3f799922	0.9749929
3	0x3f61c3c1	0.8818932
4	0x3f582ea5	0.84446174
5	0x3f5bd22f	0.8586759
6	0x3f674519	0.9033981
7	0x3f5acdac	0.8547008
8	0x3f6e1d4d	0.9301346
9	0x3f5d4eb5	0.8644822
10	0x3f75779c	0.95885634
11	0x3f61e5ef	0.88241476
12	0x3f6d2361	0.9263211
13	0x3f6bbd37	0.92085594
14	0x3f600df2	0.8752128
15	0x3f89d048	1.0766687

res_block3.bn.bias f4 [16]
0	0xbcae2f9d	-0.021262938
1	0xbdaa0399	-0.083014674
2	0xbde1a1ee	-0.11017214
3	0xbbba028a	-0.005676572
4	0xbc97ac69	-0.018514829
5	0xbd20e542	-0.039281137
6	0xbd9c3875	-0.07627956
7	0xbd8e9793	-0.06962504
8	0xbd91194a	-0.07084902
9	0xbd2513dd	-0.040302146
10	0xbd50dc2b	-0.05099122
11	0x3ac3b029	0.0014929819
12	0xbd8e8df2	-0.06960668
13	0x3a897870	0.0010488164
14	0xbc803e31	-0.015654655
15	0xbd50b840	-0.050956964

res_block3.bn.running_mean f4 [16]
0	0x3e7a60bf	0.24450968
1	0x3da80733	0.08204498
2	0xbdaac5f8	-0.08338541
3	0xbf4bb0d4	-0.79566693
4	0xbd7bac59	-0.06144366
5	0x3e7b08e6	0.24515113
6	0xbf622531	-0.88338
7	0x3f43ed8c	0.7653434
8	0xbfaaa093	-1.3330253
9	0xbf7b1ee7	-0.9809403
10	0x3dffbcd7	0.1248719
11	0xbf189685	-0.59604675
12	0xbd88687c	-0.06660554
13	0xbf78cb4a	-0.97185194
14	0x3e68ea55	0.2274564
15	0xbe345313	-0.17609815

res_block3.bn.running_var f4 [16]
0	0x3f52c6c2	0.8233453
1	0x3f8fb7b7	1.122794
2	0x3eeb1665	0.45915523
3	0x3f441c8d	0.76606065
4	0x3f102eb3	0.5632126
5	0x3f6ad411	0.9172984
6	0x3f764c61	0.96210295
7	0x3f388f3b	0.7209355
8	0x3f3cdb21	0.73771864
9	0x3f8bc4ef	1.0919474
10	0x3f2319e1	0.63711363
11	0x3f954bb0	1.1663723
12	0x3f620b9a	0.8829895
13	0x3f803825	1.0017134
14	0x3f3b8d9e	0.73262966
15	0x3f656ae2	0.89616215

output_conv.weight f4 [1, 16, 3, 3]
0	0xbd1d825e	-0.038454406
1	0xbd27ef4d	-0.0409997
2	0xbd4ebc44	-0.050472513
3	0xbd26d47d	-0.04072999
4	0x3beda075	0.007251794
5	0xbd541b87	-0.051784065
6	0xbd24c0ae	-0.040222816
7	0xbd33cf21	-0.043898705
8	0x3bae85fc	0.005326031
9	0x3ce2bfb2	0.027679298
10	0x3d840f68	0.06448251
11	0x3ce0479d	0.027377898
12	0xbd349b48	-0.0440934
13	0xbb8cfcd5	-0.004302601
14	0x3ce7c7dd	0.028293544
15	0xbd995fe4	-0.07488993
16	0xbd5852b4	-0.052813247
17	0xbc700608	-0.014649875
18	0x3cd03e12	0.025420222
19	0xbc9aa719	-0.018878506
20	0xbbb220cb	-0.005436038
21	0x3d5ac480	0.053410053
22	0x3d6c1ec8	0.057646543
23	0xbcc7d79f	-0.024394808
24	0xbd67fa24	-0.056635037
25	0xbc59c036	-0.013290456
26	0x3d9ed9aa	0.0775636
27	0xbcd4d6ed	-0.02598139
28	0xbd0413c5	-0.032245416
29	0xbd750d55	-0.059827168
30	0x3d36d318	0.04463491
31	0xbd192957	-0.03739294
32	0xbd30f75b	-0.043204647
33	0xbdfb1af9	-0.12261004
34	0x3aa3333b	0.0012451181
35	0xbd803873	-0.06260767
36	0x3d867011	0.06564344
37	0x3d6a2d69	0.057172213
38	0xbc38495f	-0.011247962
39	0x3d0800de	0.033203952
40	0x3d9952bc	0.074864835
41	0x3d2cd120	0.042191625
42	0x3d995e64	0.07488707
43	0xbcb88813	-0.022525823
44	0xbc9cd2a9	-0.01914342
45	0xbcb87eb8	-0.022521362
46	0xbcb6a9e8	-0.022297814
47	0x3d7dd67a	0.06197212
48	0x3c02b528	0.007977761
49	0xbcdf2195	-0.027237693
50	0x3cc2af62	0.02376527
51	0x3d9bcf67	0.07607918
52	0xbd838b0a	-0.06423004
53	0xbcc4db40	-0.024030328
54	0x3d542b1d	0.05179893
55	0x3c34c9b5	0.011034419
56	0xbd6c84b3	-0.05774374
57	0x3b873019	0.0041256067
58	0xbabc7df0	-0.0014380794
59	0x3d0428f3	0.032265615
60	0xbd211a1f	-0.03933155
61	0xbd8a80c3	-0.067628406
62	0xbc8f3891	-0.017483028
63	0xbc966ebb	-0.018363347
64	0xbcf9ce0b	-0.030493757
65	0x3d488c5c	0.048961982
66	0x3ccd8f50	0.02509275
67	0xbc881eef	-0.016616313
68	0x3ccc606f	0.024948327
69	0x3d40fde9	0.047117148
70	0x3d04184a	0.032249726
71	0x3bcb9b87	0.0062136087
72	0xbca04e19	-0.01956849
73	0xbd2cff06	-0.042235397
74	0xbcc3b205	-0.023888597
75	0x3c750a7a	0.014956111
76	0xbd825c28	-0.06365234
77	0xbc8e2136	-0.01734982
78	0x3c7cdb73	0.01543318
79	0x3d18d9b0	0.037316978
80	0xbcc9e222	-0.024643961
81	0x3d76c78f	0.060248908
82	0x3c84d606	0.016215336
83	0xbd3da7aa	-0.046302475
84	0xbd3df0b4	-0.04637213
85	0x3d97b59f	0.07407688
86	0xbd468148	-0.048463136
87	0xbcce7f3b	-0.025207153
88	0xbcf59fb9	-0.029983388
89	0xbcb0e460	-0.021593273
90	0xbd5b1ef8	-0.05349633
91	0x3db07e66	0.086178586
92	0xbda61f17	-0.08111399
93	0x3b5a6101	0.003332198
94	0x3d077ed2	0.03307993
95	0x3d2ad6dd	0.041708816
96	0x3c9932a6	0.018700909
97	0x3d2e58c4	0.042565122
98	0xbd3f59e9	-0.046716604
99	0xbd05f93a	-0.032708384
100	0x3da045ea	0.07825835
101	0x3d7d0ac3	0.06177784
102	0xbd2a8f34	-0.041640475
103	0x3c910bed	0.017705882
104	0x3cf63885	0.030056247
105	0x3cc79a7f	0.024365662
106	0xbd875fd9	-0.06610078
107	0xbd4fd77c	-0.05074261
108	0x3dc5b1f5	0.09653083
109	0xbcd44bbf	-0.025915025
110	0xbd8b08de	-0.06788801
111	0x3c0ddec2	0.008659067
112	0x3d40d05a	0.0470737
113	0xbc0b4f85	-0.008502846
114	0x3c2d4f11	0.010577933
115	0xbd62ff02	-0.055418976
116	0x3d5af84d	0.053459454
117	0x3da4c99a	0.08046265
118	0x3cc732fb	0.024316302
119	0x3c5e9c79	0.013587111
120	0xbd287049	-0.04112271
121	0x3de9fdfe	0.11425398
122	0x3ce0a667	0.027423097
123	0x3d8257c1	0.06364394
124	0x3cabf28c	0.020989679
125	0x3db65ccf	0.089044206
126	0x3c84d059	0.01621263
127	0x3d2633fd	0.040576924
128	0xbd3f8de1	-0.046766166
129	0x3d47f2df	0.048815604
130	0x3d86bde2	0.06579186
131	0xbc98eda4	-0.018668003
132	0x3b7746f4	0.00377315
133	0x3caacb23	0.020848816
134	0x3c5765a9	0.013146796
135	0x3c027242	0.0079618115
136	0xbd71cc71	-0.05903286
137	0xbddb9638	-0.10722011
138	0xbc3b0933	-0.0114157675
139	0x3c9e25e0	0.01930517
140	0xbc96f63d	-0.018427962
141	0xbb377678	-0.0027994197
142	0x3b471950	0.0030380078
143	0x3d31dc50	0.043422997
